virtualTB/data/action_model.pt (torch_old, 214532 bytes, 6 tensors)

0.weight f4 [128, 116]
-2.054777 3.5964646 -2.541448 -3.643895 -5.748165 1.3900319 -3.1439142 0.49128672
-2.158253 1.6079402 0.5434374 1.7874588 -4.109635 -5.5034666 1.6680001 -4.00717
0.6262756 -2.4126546 3.3011935 -0.78085375 -1.3163617 -1.0788302 -0.35788026 1.7579167
-1.0963922 -2.8048882 -2.0612452 0.66327804 3.6827083 -0.56135863 -1.8591353 3.1556394
-1.6666628 -1.391731 -3.495341 -1.6264209 -6.7449017 -7.362556 -1.3318259 -0.16727157
-0.027788432 -0.11619495 -10.360621 -3.6312737 0.036127735 -0.20898604 -0.67691696 1.7003164
-1.8414538 -1.471028 0.056374066 -0.22107643 -0.41271412 3.0272717 2.3784826 -1.6527009
3.03401 0.98164165 -2.9477372 -4.75919 -0.5196227 0.446181 -0.21643823 -17.90389
-0.60670197 -1.3936788 2.065594 -1.9481483 -12.832642 -1.8200622 -0.41787598 -0.7886536
-14.888903 -5.831428 2.410194 0.8042744 -5.7903714 -2.05777 -11.733361 -5.0090303
4.4545045 -4.842337 -0.08828133 -2.9470317 -0.5254489 -6.7974424 0.6625029 -0.55110455
-0.90253276 4.440786 31.957663 -9.157505 -32.97768 17.962017 3.1965456 -3.6302903
16.366667 -27.766272 -33.179966 -19.552937 -6.9067826 1.0246348 0.5018504 -36.469105
-18.678272 12.5493355 12.418023 -21.458117 24.386488 -27.537462 -2.3022258 19.900639
-21.283848 18.66547 14.318987 6.660179 0.07086991 -3.4309902 -0.1451809 -1.0381078
1.8099227 -1.049266 -6.0218167 0.6769254 0.05131304 0.071667016 2.8069522 0.72263026
-3.9781651 -0.73865974 -4.9492764 -6.4007063 -1.0203334 2.3049996 -3.5427506 0.14515887
2.860266 -2.7925587 -2.1002395 -14.437584 -5.0992312 -3.338036 -2.9833157 -0.9547106
-2.431765 -0.45168787 1.558127 2.3579593 -1.6958122 -13.086519 -0.97582597 -1.583527
-1.9664418 -2.5614479 -0.018679796 -0.025880799 -0.0999308 1.6590649 2.2840993 0.33416063
2.3181028 0.11700814 -4.857493 -0.9227958 0.37715766 -0.16743141 0.10319484 0.06923577
0.71886426 3.8164725 -0.1703776 -1.4462105 -0.88727117 0.7138609 0.24058096 -0.00864937
-0.28255534 0.8758213 -0.54338276 1.1705576 -2.1215138 0.17864448 -2.3107176 -4.412539
1.8505943 -1.7818445 -5.0566707 -0.21598597 0.23763748 1.1603298 0.6560482 0.78623027
-3.7745652 -2.570231 -18.064943 1.0420098 -1.7558093 0.86506677 0.059654765 2.6597304
-10.030988 -3.1112788 1.6511601 -1.4647872 -1.4984932 3.9503465 -42.020542 -14.605726
-1.0460762 -28.590908 4.4382 -39.334045 -39.57438 35.626366 -7.6309247 3.9640162
8.146984 9.04811 -11.929361 -16.429 1.5652367 -23.182518 7.815299 -5.7830777
-4.013969 10.448868 -19.652502 18.5104 29.798344 16.499744 -47.207123 -44.58429
0.39740348 -0.97339404 -3.56409 -0.47919106 0.62650627 -0.6355544 1.2694608 2.4308357
0.26458663 1.2931554 -0.685492 -0.27848276 -0.039043684 1.6724185 -1.7858082 -4.827011
-5.048015 -5.2068233 1.7774935 -2.2561042 -3.3770232 -0.3370357 0.6154034 0.70887315
00000000: 7781 03c0 7a2c 6640 16a7 22c0 9335 69c0
00000010: f8f0 b7c0 91ec b13f e435 49c0 ef89 fb3e
00000020: d120 0ac0 fcd0 cd3f b71e 0b3f 73cb e43f
00000030: 2182 83c0 661c b0c0 0781 d53f bd3a 80c0
00000040: 9953 203f ef68 1ac0 c146 5340 08e6 47bf
00000050: 8a7e a8bf 1c17 8abf 153c b7be 6a03 e13f
00000060: 9456 8cbf 4a83 33c0 71eb 03c0 97cc 293f
00000070: 7eb1 6b40 33b5 0fbf 25f8 edbf fff5 4940
00000080: 3555 d5bf 3e24 b2bf abb3 5fc0 8f2e d0bf
00000090: 3cd6 d7c0 0f9a ebc0 4579 aabf 3d49 2bbe
000000a0: 91a4 e3bc 9ef7 edbd 1bc5 25c1 ca66 68c0
000000b0: adfa 133d 7000 56be 6e4a 2dbf f8a3 d93f
000000c0: c2b4 ebbf a54a bcbf 7ee8 663d dc61 62be
000000d0: 444f d3be d2be 4140 0f39 1840 b48b d3bf
000000e0: 382d 4240 de4c 7b3f baa7 3cc0 494b 98c0
000000f0: fe05 05bf d671 e43e fca1 5dbe 2b3b 8fc1
00000100: d250 1bbf 1164 b2bf b132 0440 ec5c f9bf
00000110: 8052 4dc1 ccf7 e8bf d7f3 d5be 34e5 49bf
00000120: f238 6ec1 0f9b bac0 9e40 1a40 ede4 4d3f
00000130: b94a b9c0 81b2 03c0 d9bb 3bc1 fa49 a0c0
00000140: 4d8b 8e40 6df4 9ac0 d8cc b4bd 2b9c 3cc0
00000150: d283 06bf a684 d9c0 ca99 293f 3015 0dbf
00000160: 630c 67bf eb1a 8e40 4ba9 ff41 2485 12c1
00000170: 25e9 03c2 36b2 8f41 3494 4c40 ad56 68c0
00000180: efee 8241 5321 dec1 49b8 04c2 6a6c 9cc1
00000190: 5d04 ddc0 3c27 833f 4579 003f 5de0 11c2
000001a0: 1a6d 95c1 14ca 4841 39b0 4641 39aa abc1
000001b0: 8717 c341 b94c dcc1 ab57 13c0 8234 9f41
000001c0: 5245 aac1 e252 9541 921a 6541 3020 d540
000001d0: 3e24 913d 5895 5bc0 4daa 14be b7e0 84bf
000001e0: 8cab e73f 594e 86bf b9b2 c0c0 fc4a 2d3f
000001f0: 9f2d 523d 28c6 923d 1ba5 3340 4cfe 383f
00000200: 429a 7ec0 ce18 3dbf 7960 9ec0 96d2 ccc0
00000210: 499a 82bf 1d85 1340 6dbc 62c0 87a4 143e
00000220: 990e 3740 48b9 32c0 536a 06c0 5800 67c1
00000230: e72c a3c0 62a2 55c0 a5ee 3ec0 ea67 74bf
00000240: 0aa2 1bc0 a243 e7be b570 c73f cee8 1640
00000250: 6010 d9bf 6262 51c1 bbcf 79bf 03b1 cabf
00000260: 5db4 fbbf c3ee 23c0 5f06 99bc f803 d4bc
00000270: 85a8 ccbd 3d5c d43f af2e 1240 1a17 ab3e
00000280: cc5b 1440 f7a1 ef3d 9570 9bc0 583c 6cbf
00000290: cf1a c13e 2473 2bbe d157 d33d 7ccb 8d3d
000002a0: 7d07 383f 1641 7440 7777 2ebe 6d1d b9bf
000002b0: 3424 63bf 97bf 363f db5a 763e 16b6 0dbc
000002c0: 18ab 90be d335 603f 221b 0bbf d5d4 953f
000002d0: e2c6 07c0 94ee 363e cce2 13c0 8533 8dc0
000002e0: 46e0 ec3f 7b13 e4bf 3fd0 a1c0 6d2b 5dbe
000002f0: 3d57 733e b085 943f c6f2 273f 6346 493f
00000300: 7a92 71c0 aa7e 24c0 0185 90c1 9460 853f
00000310: 5cbe e0bf 0475 5d3f 8e58 743d 0639 2a40
00000320: ed7e 20c1 311f 47c0 3759 d33f 267e bbbf
00000330: a0ce bfbf 7ad2 7c40 0915 28c2 0eb1 69c1
00000340: d3e5 85bf 2eba e4c1 bc05 8e40 1056 1dc2
00000350: 2a4c 1ec2 6681 0e42 8930 f4c0 71b2 7d40
00000360: 0c5a 0241 0fc5 1041 aade 3ec1 986e 83c1
00000370: ad59 c83f cc75 b9c1 ee16 fa40 f90e b9c0
00000380: 6f72 80c0 902e 2741 5338 9dc1 4d15 9441
00000390: 0263 ee41 7aff 8341 18d4 3cc2 5056 32c2
000003a0: 7878 cb3e 5a30 79bf 0d1a 64c0 8858 f5be
000003b0: b762 203f b1b3 22bf b17d a23f d092 1b40
000003c0: e677 873e 1e86 a53f 677c 2fbf 4b95 8ebe
000003d0: 45ec 1fbd cf11 d63f 5d95 e4bf e076 9ac0
000003e0: 5789 a1c0 4c9e a6c0 e884 e33f 0364 10c0
000003f0: 2621 58c0 f18f acbe 148b 1d3f b678 353f

0.bias f4 [128]
-0.39369723 -0.35330677 -0.241386 -0.39633864 -0.17453448 -0.2958005 -0.47905323 -0.09626588
-0.1705033 -0.56975895 -0.17804407 0.0698571 -0.09307188 -0.09600917 -0.030026838 -0.4832805
-0.12380153 -0.084313065 -0.30668437 -0.0031339293 0.093190715 -0.0170978 -0.07384123 -0.46330047
0.04268558 -0.18826269 0.022000778 -0.34807953 -0.10847825 -0.49762702 0.2567995 -0.2326114
-0.3028496 -0.058434073 -0.37611544 -0.2129488 -0.26851812 -0.21583505 -0.21671197 -0.4949422
-0.1744066 0.04721421 0.042942125 -0.19585258 0.019465268 -0.32540137 -0.38975245 -0.3766103
0.060034793 -0.28828043 -0.32283276 -0.33944467 -0.3552885 -0.86081165 -0.42978314 0.05362049
-0.31695265 -0.22086982 -0.051441517 -0.5568622 0.04742043 0.06207981 0.025095694 -0.32143712
-0.39344245 -0.37027454 -0.6400011 -0.019285219 -0.15468806 -0.27530742 0.068378285 -0.39531726
-0.010460834 -0.35665625 -0.21662204 0.501978 -0.3705133 -0.36646235 -0.21982235 -0.18928133
-0.0858215 -0.18825494 0.25616878 -0.006044814 -0.35159692 -0.20632881 -0.13217767 -0.24285056
-0.3658074 -0.35335225 -0.23235829 -0.123755425 -0.28628784 -0.08451965 -0.24437156 -0.41160995
-0.02209414 -0.3611826 0.038374305 0.17859572 -0.22320573 -0.15156211 -0.35429057 -0.31696737
-0.54579675 0.050062202 -0.039391167 -0.055790175 -0.45399812 -0.30520496 -0.082017094 -0.13775624
-0.45084244 0.039141107 -0.14673568 -0.27839196 0.035783075 0.044477552 -0.30910808 -0.35530415
-0.07920274 -0.027233988 -0.18666868 -0.48025003 -0.20802534 -0.22418839 -0.296653 -0.36072072
00000000: af92 c9be a0e4 b4be e42d 77be e6ec cabe
00000010: 2bb9 32be 2a73 97be 7746 f5be 0c27 c5bd
00000020: 6b98 2ebe b9db 11bf 2f51 36be 3d11 8f3d
00000030: 789c bebd 75a0 c4bd d8fa f5bc 8b70 f7be
00000040: a88b fdbd 54ac acbd bc05 9dbe 9c62 4dbb
00000050: c6da be3d af10 8cbc 123a 97bd b835 edbe
00000060: 13d7 2e3d efc7 40be fa3a b43c 7b37 b2be
00000070: d829 debd f8c8 febe 397b 833e af31 6ebe
00000080: 1a0f 9bbe 9158 6fbd 3492 c0be 400f 5abe
00000090: 357b 89be dd03 5dbe bee9 5dbe 1069 fdbe
000000a0: a597 32be b063 413d 15e4 2f3d 948d 48be
000000b0: a075 9f3c 029b a6be a28d c7be 11d3 c0be
000000c0: 0be7 753d 7e99 93be 564a a5be b1cb adbe
000000d0: 60e8 b5be 275e 5cbf 890c dcbe 29a1 5b3d
000000e0: 9e47 a2be b32b 62be 57b4 52bd 858e 0ebf
000000f0: ed3b 423d 6647 7e3d 7c95 cd3c 6893 a4be
00000100: 4a71 c9be a094 bdbe 1dd7 23bf 09fc 9dbc
00000110: 8c66 1ebe 18f5 8cbe ea09 8c3d 0667 cabe
00000120: eb63 2bbc a69b b6be 2bd2 5dbe a181 003f
00000130: ebb3 bdbe f4a0 bbbe 1c19 61be f7d2 41be
00000140: 2fc3 afbd e7c5 40be 8e28 833e 9313 c6bb
00000150: 8304 b4be dc47 53be 9559 07be d1ad 78be
00000160: 1c4b bbbe 96ea b4be 55ef 6dbe 7c73 fdbd
00000170: 5294 92be a318 adbd 8a3c 7abe 8abe d2be
00000180: c5fe b4bc edec b8be 602e 1d3d cce1 363e
00000190: 0b90 64be 1933 1bbe 9365 b5be 8c49 a2be
000001a0: 56b9 0bbf 060e 4d3d a258 21bd 3d84 64bd
000001b0: 7172 e8be d343 9cbe 94f8 a7bd f90f 0dbe
000001c0: d2d4 e6be 6d52 203d e141 16be 6489 8ebe
000001d0: 4691 123d 182e 363d 6a43 9ebe 6dea b5be
000001e0: 0c35 a2bd d019 dfbc 1326 3fbe 55e3 f5be
000001f0: 9804 55be a491 65be e7e2 97be 63b0 b8be

2.weight f4 [256, 128]
0.6969453 -1.7086788 -0.9578245 -0.25180447 1.133899 0.6066032 1.3045192 -0.16107103
-1.8961053 -2.6802433 0.18101782 -0.6402486 1.2013674 -2.947747 1.0486522 -0.28921482
-1.1461568 -3.2264419 0.8173709 0.9852264 0.013456681 0.5299491 0.76997817 -0.8385254
0.48504016 -0.9957594 -0.61737967 1.932739 1.1712031 0.8058385 -3.0340936 1.1303467
-0.115793616 0.13763562 1.6934652 -0.92664754 1.515024 0.2340755 0.048957992 1.3344544
-0.24124019 -0.9781818 0.31666476 -0.9565147 -0.9305739 1.6772234 0.7736037 -2.604213
-0.19774227 -5.2323585 0.24242462 -0.21861291 0.11736404 0.25107756 0.2153455 -1.7684569
1.4829655 1.4244002 1.0545788 -0.702021 -0.93690205 0.6920289 0.04226953 -4.1634398
-2.467022 -1.9730984 1.5710621 1.2217207 0.4256896 0.29757288 0.26803288 -0.6610429
0.7565086 1.3106575 -0.5298357 0.15169345 1.4301325 0.49962625 -1.398469 1.5694381
-0.4945549 0.23163007 -0.21573809 0.56045115 1.2746257 -3.9801078 -0.67125916 0.3116793
-2.8898988 1.2037458 0.9811914 1.2536973 -1.2095748 0.015187742 -0.15096468 1.4906619
0.6971475 -0.78337914 0.87888575 -0.19255507 -0.5967821 -0.8236286 0.014826739 2.1546514
-0.46228632 0.21320052 -1.222827 0.5739625 -1.1622603 1.668665 0.53671837 1.4673139
0.7256271 -0.4629376 3.868758 0.81948936 -0.8746466 0.093045 -0.35590383 -0.8243998
1.2780937 0.023067221 -0.3629099 -1.0069025 -0.87247866 -0.7414568 0.7076926 1.748272
2.5571156 1.3241506 0.40148363 -0.6488513 -0.063155174 -0.92486644 -1.9229382 2.0832038
-0.4629134 1.7620966 0.8555215 -3.5204227 -0.11625187 1.0908265 -3.3242936 -1.83777
2.3710053 0.7978693 1.0579023 -0.7196273 -1.6522275 -0.13675858 -2.6591074 -1.5273925
-0.6768743 -1.2529342 -0.12674253 3.212619 -3.564972 1.1860999 -0.06031306 1.2643768
-1.3431947 -0.38118526 1.1899953 -1.5967416 -1.5312479 -0.66415405 1.4906894 -3.434674
-1.3096097 -0.71695924 -4.284986 0.088693455 -0.96209586 -0.7848419 2.0914454 -1.0117784
-0.18753792 -3.3341708 1.0751834 0.3221882 2.2324848 1.510322 -1.1909039 -0.04922473
0.17259486 0.16760121 -0.29898152 0.35297054 0.9711269 -2.9482112 -2.7882664 -1.3585905
3.7457514 -2.3925824 -0.26212284 0.57532495 -4.8956904 -1.1969284 0.09145269 0.42352456
-2.381566 0.00929062 0.46982116 -0.7777008 0.77740175 -0.28266564 -2.6179671 -4.042277
-0.6950207 -2.8059375 -1.3871562 -1.0223955 -0.2057805 0.2769999 0.32277295 1.0468185
-4.1276937 -0.35406277 0.5913372 1.2498063 -1.8289336 1.2569122 -1.8855132 0.29666668
0.15057181 0.9058515 -1.0279841 -1.2058177 -2.0471973 -0.5444114 0.48209298 -5.983145
1.3022933 -0.16681078 0.33311746 -0.983528 2.1202724 0.44774723 0.2173872 -0.5608277
0.807728 1.3132278 0.0023434777 -1.6641471 -3.3685286 -1.2047952 1.2140632 -0.63222545
-3.2252386 -1.6997273 0.5002965 1.7583454 0.42100546 1.0461752 2.3429828 0.582294
00000000: 026b 323f fdb5 dabf fd33 75bf 84ec 80be
00000010: 9a23 913f 594a 1b3f 7cfa a63f ceef 24be
00000020: 94b3 f2bf 1b89 2bc0 bc5c 393e 55e7 23bf
00000030: 68c6 993f e3a7 3cc0 3c3a 863f f713 94be
00000040: 44b5 92bf 067e 4ec0 383f 513f cc37 7c3f
00000050: 6979 5c3c bfaa 073f 4a1d 453f 9aa9 56bf
00000060: 2f57 f83e 17ea 7ebf 980c 1ebf fe63 f73f
00000070: fce9 953f 6f4b 4e3f 972e 42c0 33af 903f
00000080: 3425 edbd 5af0 0c3e 78c3 d83f c638 6dbf
00000090: 4eec c13f 7db1 6f3e 2d88 483d 67cf aa3f
000000a0: ab07 77be 1f6a 7abf e221 a23e 26de 74bf
000000b0: 173a 6ebf 42af d63f e40a 463f 6dab 26c0
000000c0: f37c 4abe 7b6f a7c0 293e 783e 10dc 5fbe
000000d0: 8f5c f03d 3d8d 803e 8883 5c3e cc5c e2bf
000000e0: d0d1 bd3f bf52 b63f 70fc 863f a6b7 33bf
000000f0: d0d8 6fbf ce28 313f d122 2d3d e63a 85c0
00000100: b0e3 1dc0 7d8e fcbf 9018 c93f 5861 9c3f
00000110: fdf3 d93e 795b 983e 9b3b 893e 1c3a 29bf
00000120: 8caa 413f a0c3 a73f 50a3 07bf 8755 1b3e
00000130: 950e b73f 03cf ff3e 0801 b3bf 59e3 c83f
00000140: 4d36 fdbe 6f30 6d3e 72ea 5cbe ba79 0f3f
00000150: ef26 a33f 16ba 7ec0 a4d7 2bbf 6e94 9f3e
00000160: 1af4 38c0 5814 9a3f 5c2f 7b3f 2779 a03f
00000170: 59d3 9abf 02d6 783c 7c96 1abe 02ce be3f
00000180: 4278 323f 898b 48bf a8fe 603f 282d 45be
00000190: b6c6 18bf 53d9 52bf daeb 723c cfe5 0940
000001a0: cbb0 ecbe 3d51 5a3e 9885 9cbf 35ef 123f
000001b0: f2c4 94bf d196 d53f 6066 093f f1d0 bb3f
000001c0: b3c2 393f 2806 edbe bb99 7740 0eca 513f
000001d0: d7e8 5fbf 618e be3d 0739 b6be de0b 53bf
000001e0: 9398 a33f 78f7 bc3c 54cf b9be 2ee2 80bf
000001f0: c35a 5fbf 1dd0 3dbf 582b 353f 60c7 df3f
00000200: c8a7 2340 c47d a93f 438f cd3e 1e1b 26bf
00000210: 8057 81bd 0cc4 6cbf d722 f6bf 3653 0540
00000220: fc02 edbe 628c e13f 7503 5b3f 9b4e 61c0
00000230: 7615 eebd 34a0 8b3f 3ac1 54c0 0c3c ebbf
00000240: 8dbe 1740 2a41 4c3f 5869 873f 7f39 38bf
00000250: 317c d3bf 710a 0cbe d12e 2ac0 9981 c3bf
00000260: a247 2dbf 2660 a0bf cbc8 01be 8d9b 4d40
00000270: 8028 64c0 1fd2 973f d40a 77bd 19d7 a13f
00000280: ceed abbf b72a c3be c451 983f 0762 ccbf
00000290: eeff c3bf 0006 2abf e9ce be3f b3d1 5bc0
000002a0: 4aa1 a7bf a48a 37bf 9b1e 89c0 eaa4 b53d
000002b0: ea4b 76bf 66eb 48bf 3eda 0540 f481 81bf
000002c0: f109 40be 0e63 55c0 9c9f 893f daf5 a43e
000002d0: 08e1 0e40 3b52 c13f 8a6f 98bf df9f 49bd
000002e0: b5bc 303e a79f 2b3e 1b14 99be 8eb8 b43e
000002f0: c69b 783f 7eaf 3cc0 f572 32c0 4be6 adbf
00000300: 64ba 6f40 1220 19c0 f734 86be 7f48 133f
00000310: 7fa9 9cc0 f334 99bf 8c4b bb3d 36d8 d83e
00000320: 946b 18c0 af37 183c 668c f03e 6617 47bf
00000330: cd03 473f 8db9 90be c68c 27c0 555a 81c0
00000340: e0ec 31bf 7b94 33c0 568e b1bf dbdd 82bf
00000350: 20b8 52be eed2 8d3e 7f42 a53e 26fe 853f
00000360: 1116 84c0 b747 b5be e061 173f a7f9 9f3f
00000370: 7f1a eabf 80e2 a03f 7f58 f1bf b2e4 973e
00000380: 7f2f 1a3e e2e5 673f fc94 83bf 3c58 9abf
00000390: 4805 03c0 8c5e 0bbf e4d4 f63e ed75 bfc0
000003a0: 8cb1 a63f 72d0 2abe 5f8e aa3e 7ec8 7bbf
000003b0: 8bb2 0740 203f e53e c09a 5e3e 6792 0fbf
000003c0: 43c7 4e3f d917 a83f 0895 193b c602 d5bf
000003d0: f995 57c0 bb36 9abf 6c66 9b3f 87d9 21bf
000003e0: 4f6a 4ec0 aa90 d9bf 6e13 003f 7611 e13f
000003f0: 078e d73e 12e9 853f 6ef3 1540 3811 153f

2.bias f4 [256]
-2.6297472 0.1282915 -1.5222472 -0.2469372 -0.3938588 -4.0068054 -1.5144789 -2.0916853
-2.8135762 -2.296419 0.05455889 -0.7161754 -3.456451 0.16267589 -3.1734006 -3.6100779
-1.0424294 1.5930269 -2.2891104 -2.9704492 -1.3367463 -1.9857743 -0.31142923 -2.8597102
-2.1168542 -2.0629036 0.3113086 -0.5664873 -0.43189296 -1.0428214 -0.98260444 -1.1584886
-0.96664107 -1.6343851 1.3887486 0.27800703 0.92347836 -3.024162 0.04385475 -0.287871
-0.70763326 -1.8116791 0.23970397 -2.539866 -0.9439537 -2.362068 -3.4079487 -0.38716394
0.6985345 0.042190176 -1.6370975 0.8958612 -1.6807456 -0.5665748 -1.2677321 -1.512071
-1.458851 0.034086727 -4.34524 1.6656775 -0.817486 1.3385003 -1.9691362 -0.77842647
-1.332999 -0.9871701 -4.418947 -2.8780484 -1.241001 -1.5957228 -1.9000647 -2.9299088
-3.6336222 -2.7412646 -0.9476665 1.0077262 -0.40971625 -3.284693 0.8786415 1.820196
-1.6104662 1.1961334 -1.0151336 -0.52801436 -1.5392827 -0.34809735 -1.2070452 -0.6510514
-3.5927777 -2.1658351 -0.98459315 -2.544502 -0.6196444 -1.3295162 1.1096331 0.9400566
-3.7134354 0.28040674 -2.635452 -1.5809119 -0.9727863 -1.0836866 -0.1686196 1.8522488
-2.491262 0.5027862 0.5634003 -1.5262591 -1.3820148 -2.5903387 -0.29559195 -1.6482123
-0.840903 -1.2039707 -1.5643485 -1.2124037 -3.2407637 1.0201538 0.6641421 -0.620321
-2.0258207 -2.3589137 -0.39588463 0.90371037 -2.3644927 -6.2735868 -2.3448431 -1.5290288
-1.5704975 -2.2822545 -1.9579743 -1.7059238 0.9466847 -1.6648867 0.30015716 0.30594906
-0.5541888 -2.2247996 -1.2141556 -1.3145165 -2.5775259 -0.38407427 -2.4431825 0.4828524
-4.9985623 -1.4410987 0.43016624 0.3664329 -1.9367703 -2.9931793 -0.81075853 -0.18976311
0.49692565 0.2773017 -2.5823064 -0.72458315 -2.048252 -4.1168566 -0.66736686 -3.4442098
-1.2058784 -0.8583507 -1.2917975 -0.98372716 -2.4516087 -1.4141111 -1.4126102 -0.25974572
-3.460517 -1.9836031 -3.6428735 -1.372506 -2.1839821 -2.3835344 -0.16761847 -3.1997285
0.6968424 0.44152388 -4.8022456 -1.042698 -0.92844695 -0.33584243 -2.4125116 -1.028142
-0.09508526 -1.2009487 -2.41904 -2.4410503 -0.8919443 -0.7878839 0.38182366 -0.064862415
-1.2166796 -0.2329165 -2.7680664 1.7711854 -3.0957158 0.8183272 1.2814276 -1.7712576
-0.11638944 -2.7433195 -5.488834 -2.9093912 -1.811795 -1.5672551 2.2928424 -0.9598282
0.35911217 0.014724611 -1.437066 -0.32859242 -1.4870647 0.49359557 -2.5502126 -1.4007195
-1.8537523 -0.105188236 -0.06364912 0.35398254 -2.2376404 -3.233348 0.29520428 0.33706197
0.6850933 -1.0994649 -0.78184676 -1.5792248 -3.75152 -1.0932548 -0.9583802 -1.9183062
-3.1263514 -2.2414017 -2.9495032 -1.9758494 -2.074677 -0.36069635 -1.2820375 -1.8128092
-1.5559992 0.013936646 -1.6173642 2.6214564 -1.770758 -0.24877582 -0.09787236 -1.3881046
-2.0874295 -0.5197098 -2.881813 -3.1431966 -1.7873645 -2.2300916 -0.9469756 -1.9373884
00000000: c74d 28c0 d95e 033e ffd8 c2bf 1bdd 7cbe
00000010: dca7 c9be c037 80c0 72da c1bf 2cde 05c0
00000020: a211 34c0 87f8 12c0 2579 5f3d 4557 37bf
00000030: 7e36 5dc0 8294 263e ff18 4bc0 840b 67c0
00000040: 546e 85bf 4ee8 cb3f c980 12c0 d71b 3ec0
00000050: 811a abbf da2d febf a773 9fbe 7e05 37c0
00000060: 8a7a 07c0 9d06 04c0 d763 9f3e 5005 11bf
00000070: 1321 ddbe 2c7b 85bf f78b 7bbf 5b49 94bf
00000080: ca75 77bf 8833 d1bf 84c2 b13f f056 8e3e
00000090: 1469 6c3f df8b 41c0 0aa1 333d d463 93be
000000a0: 7427 35bf 1ae5 e7bf f574 753e 2a8d 22c0
000000b0: f3a6 71bf 1f2c 17c0 d51b 5ac0 5a3a c6be
000000c0: 28d3 323f 9bcf 2c3d 698c d1bf 2957 653f
000000d0: ac22 d7bf 0c0b 11bf 0c45 a2bf 8b8b c1bf
000000e0: a1bb babf 869e 0b3d 350c 8bc0 ec34 d53f
000000f0: c346 51bf fa53 ab3f a80c fcbf f546 47bf
00000100: b69f aabf 2eb7 7cbf 0468 8dc0 f231 38c0
00000110: 1fd9 9ebf a540 ccbf 5235 f3bf a083 3bc0
00000120: 448d 68c0 e170 2fc0 469a 72bf 2cfd 803f
00000130: 54c6 d1be 6938 52c0 a6ee 603f 2ffc e83f
00000140: c223 cebf e61a 993f e6ef 81bf f32b 07bf
00000150: 3707 c5bf d139 b2be 7580 9abf 4eab 26bf
00000160: 12f0 65c0 0b9d 0ac0 4c0e 7cbf 1fd9 22c0
00000170: 04a1 1ebf 962d aabf 7508 8e3f 8da7 703f
00000180: eda8 6dc0 7991 8f3e 3fab 28c0 525b cabf
00000190: 8608 79bf 3eb6 8abf 9eaa 2cbe 7d16 ed3f
000001a0: d670 1fc0 99b6 003f 013b 103f 755c c3bf
000001b0: dce5 b0bf 1cc8 25c0 d457 97be 9ff8 d2bf
000001c0: 6b45 57bf b61b 9abf 923c c8bf 0b30 9bbf
000001d0: ac68 4fc0 6694 823f 3705 2a3f 5bcd 1ebf
000001e0: 0ca7 01c0 71f8 16c0 64b1 cabe 9059 673f
000001f0: d953 17c0 39c1 c8c0 e911 16c0 37b7 c3bf
00000200: 1006 c9bf 7510 12c0 e79e fabf b65b dabf
00000210: ee59 723f 021b d5bf 33ae 993e 5ba5 9c3e
00000220: 51df 0dbf 1e63 0ec0 7369 9bbf 1442 a8bf
00000230: 2ff6 24c0 62a5 c4be 1a5d 1cc0 6e38 f73e
00000240: 39f4 9fc0 ec75 b8bf c03e dc3e 189d bb3e
00000250: 17e8 f7bf 4090 3fc0 df8d 4fbf 4351 42be
00000260: 0a6d fe3e 7dfa 8d3e 8244 25c0 487e 39bf
00000270: 9016 03c0 4abd 83c0 8ed8 2abf ef6d 5cc0
00000280: 395a 9abf dfbc 5bbf 9f59 a5bf 8bd5 7bbf
00000290: 28e7 1cc0 9801 b5bf 69d0 b4bf 64fd 84be
000002a0: 1c79 5dc0 b5e6 fdbf d724 69c0 47ae afbf
000002b0: 5dc6 0bc0 d48b 18c0 2da4 2bbe 5ac8 4cc0
000002c0: 4364 323f 6b0f e23e ffab 99c0 2177 85bf
000002d0: b3ae 6dbf 8af3 abbe 9766 1ac0 289a 83bf
000002e0: 10bc c2bd b0b8 99bf 8dd1 1ac0 2b3a 1cc0
000002f0: 7656 64bf c2b2 49bf 647e c33e 96d6 84bd
00000300: 28bc 9bbf aa81 6ebe 0028 31c0 34b6 e23f
00000310: 3520 46c0 e47d 513f d205 a43f 92b8 e2bf
00000320: 965d eebd 8c92 2fc0 87a4 afc0 7733 3ac0
00000330: e6e8 e7bf d19b c8bf eebd 1240 4db7 75bf
00000340: 8ddd b73e 7f3f 713c c7f1 b7bf 443d a8be
00000350: 2358 bebf 8fb8 fc3e af36 23c0 c74a b3bf
00000360: c147 edbf ee6c d7bd 785a 82bd 333d b53e
00000370: 8035 0fc0 2cef 4ec0 0425 973e 6393 ac3e
00000380: 4662 2f3f 44bb 8cbf 1c27 48bf 0a24 cabf
00000390: e718 70c0 c6ef 8bbf 6858 75bf 0f8b f5bf
000003a0: 2416 48c0 2073 0fc0 a9c4 3cc0 a2e8 fcbf
000003b0: 82c7 04c0 31ad b8be ce19 a4bf 220a e8bf
000003c0: fb2a c7bf 8856 643c ca05 cfbf f1c5 2740
000003d0: 33a8 e2bf 17bf 7ebe 4e71 c8bd 69ad b1bf
000003e0: 7298 05c0 b40b 05bf a06f 38c0 222a 49c0
000003f0: 5cc8 e4bf d2b9 0ec0 fe6c 72bf 58fc f7bf

4.weight f4 [21, 256]
0.2215481 -0.46329048 0.10919814 -0.1354797 -0.9976793 -0.98649174 0.71673095 1.0211087
-0.011046719 1.424408 -0.04989375 0.06273702 0.040646564 -0.16346385 0.11743976 -1.2677009
0.14503166 0.11281841 0.13181303 0.23974143 -0.117617786 -0.78590727 -0.28410947 0.25250772
-0.2907906 -0.46506676 0.19462386 -0.063742995 -0.13413578 0.37478477 0.49702185 0.3797479
-1.1118958 -0.1729178 0.26987636 0.104157075 -0.6791231 0.11956581 0.6335846 -0.9592087
-1.3111229 0.096674114 -0.1414647 1.1638277 0.28144947 0.25277847 -0.52338 0.42285028
0.07469893 0.5595716 -1.0766641 1.3501872 0.101772815 0.0055058496 0.16804662 0.73888004
0.75164753 0.45332474 -0.45788276 -0.37269998 0.11490661 0.4735032 0.23926271 0.39504704
-0.53049177 -0.43639663 0.8035555 0.43759662 0.3699088 -0.00903515 0.14287215 -1.1214211
-1.3235729 0.89301425 0.6777017 0.6124712 0.41810727 -0.80732995 0.09157743 0.27668417
-0.009088886 0.13893554 1.03663 0.08290628 -0.41291943 0.3351568 0.012461289 -0.075198896
0.85894865 -0.8107594 -0.06888561 0.028992666 -0.011377551 0.18872711 -1.1308088 -0.10346743
-0.52060217 0.16340132 1.4267409 0.22002223 -0.05078779 0.35067317 0.09161076 -0.6309374
0.69909596 -0.69853866 -0.24657549 -0.88187695 0.4822283 0.04633996 0.17998862 -0.039009046
-0.71697336 0.078307696 -1.1712056 0.18441375 -1.1054404 -0.6418129 0.20894843 0.22430396
-0.66019005 -0.6572156 -0.66657066 0.063134454 0.49397874 0.5452461 -0.31333426 -0.19942665
0.15462886 -0.101234004 -0.3901449 -0.25831732 0.10474759 0.115020834 -0.0942125 -0.7506358
0.80793685 0.08979325 -0.24964328 -0.5135345 0.39310426 0.14950554 -0.08111346 0.55732507
-1.3181974 0.10611598 -0.1539732 -0.55510306 -0.0058813035 -0.47907728 -0.23318914 0.19084379
-0.065999314 -0.30517608 0.24046004 0.53168774 0.21976131 0.804262 0.5220741 -0.045089368
0.37357426 0.06932849 0.011665273 -0.20588687 -0.28462505 0.65445346 -0.11072813 -1.1172367
-0.048638403 0.6341858 -0.6643263 0.015170898 -0.10748364 -0.05418781 -0.30038568 -0.23576011
0.26737383 0.11160726 1.4522586 -0.1553876 -0.005154596 -0.08171254 -0.01052094 -1.1436287
0.22672579 -0.06867842 -0.20558323 -0.7384236 0.7986984 0.388249 0.33230302 0.6132928
0.026508566 0.11943805 -0.15032323 0.09422092 -1.1166722 0.14960848 -0.021609139 0.035541467
-0.14828491 0.15993944 -0.10076573 0.04633961 -0.8555276 0.6320658 0.0793401 0.11669347
0.25146583 0.11581232 0.48403564 0.0010506171 0.933574 0.041521717 -0.06911793 0.06731996
-0.27874178 0.14864455 0.28740248 -0.022312628 0.35667288 -0.23519243 -0.07016429 -0.038805827
0.35225978 0.0532305 -0.006582908 0.54202145 -0.3897866 0.49860445 -0.14935459 0.62536
0.77520937 0.120629795 -0.7650535 -0.21132138 -0.23698689 -0.65932995 0.098357655 -0.38362333
0.008104668 0.22861668 -1.0880338 0.16006118 0.74446636 0.43173406 0.17346323 -0.44178855
0.15075731 -0.29245675 -0.39792007 0.41489625 -0.490972 -0.3366556 -0.32357857 -0.5784806
00000000: 81dd 623e 6934 edbe 46a3 df3d 31bb 0abe
00000010: e967 7fbf b98a 7cbf ae7b 373f b1b3 823f
00000020: 4cfd 34bc 0053 b63f 645d 4cbd 447c 803d
00000030: 037d 263d 1163 27be 4284 f03d 0644 a2bf
00000040: 2e83 143e 570d e73d fff9 063e c77e 753e
00000050: 98e1 f0bd 3831 49bf cc76 91be b148 813e
00000060: 81e2 94be 3b1d eebe 7a4b 473e b08b 82bd
00000070: e45a 09be cae3 bf3e a679 fe3e 516e c23e
00000080: 9a52 8ebf 5d11 31be 3c2d 8a3e 4e50 d53d
00000090: 03db 2dbf ebde f43d 9a32 223f b48e 75bf
000000a0: e0d2 a7bf 14fd c53d 1fdc 10be 4ef8 943f
000000b0: 251a 903e 2e6c 813e 3bfc 05bf d57f d83e
000000c0: c1fb 983d 1640 0f3f 21d0 89bf efd2 ac3f
000000d0: 446e d03d 6a6a b43b 6a14 2c3e 3e27 3d3f
000000e0: f96b 403f 2e1a e83e 9c6f eabe 88d2 bebe
000000f0: 2854 eb3d 036f f23e 4901 753e 9b43 ca3e
00000100: 4fce 07bf 616f dfbe d0b5 4d3f aa0c e03e
00000110: b064 bd3e 2a08 14bc 144d 123e ba8a 8fbf
00000120: d66a a9bf 959c 643f dc7d 2d3f eaca 1c3f
00000130: 2812 d63e 2dad 4ebf f38c bb3d 8ca9 8d3e
00000140: 8de9 14bc 1e45 0e3e 4bb0 843f c5ca a93d
00000150: 2d6a d3be ac99 ab3e 6f2a 4c3c e101 9abd
00000160: 0fe4 5b3f ee8d 4fbf e613 8dbd 0782 ed3c
00000170: e868 3abc ae41 413e 58be 90bf bbe6 d3bd
00000180: 2f46 05bf ad52 273e 729f b63f 824d 613e
00000190: dc06 50bd 6f8b b33e 6c9e bb3d 1d85 21bf
000001a0: f4f7 323f 6ed3 32bf 497e 7cbe b0c2 61bf
000001b0: a1e6 f63e f8ce 3d3d f04e 383e f3c7 1fbd
000001c0: 918b 37bf c95f a03d 11ea 95bf f5d6 3c3e
000001d0: 127f 8dbf da4d 24bf 94f6 553e f0af 653e
000001e0: 3702 29bf 483f 28bf 60a4 2abf a34c 813d
000001f0: c8ea fc3e 4095 0b3f 596d a0be 8036 4cbe
00000200: 0757 1e3e c653 cfbd 13c1 c7be 2b42 84be
00000210: e885 d63d 0b90 eb3d 7cf2 c0bd ab29 40bf
00000220: f3d4 4e3f 86e5 b73d 7da2 7fbe ff76 03bf
00000230: f644 c93e fb17 193e d01e a6bd dbac 0e3f
00000240: b1ba a8bf 5653 d93d 27ab 1dbe 3c1b 0ebf
00000250: f3b7 c0bb 9e49 f5be 22c9 6ebe 8e6c 433e
00000260: a62a 87bd 0a40 9cbe 283b 763e b01c 083f
00000270: 1c09 613e 1de4 4d3f a6a6 053f a1af 38bd
00000280: 2045 bf3e 18fc 8d3d b41f 3f3c 02d4 52be
00000290: 60ba 91be 438a 273f 6ec5 e2bd 9d01 8fbf
000002a0: 1039 47bd 005a 223f 4a11 2abf 5c8f 783c
000002b0: 6220 dcbd 09f4 5dbd 27cc 99be 196b 71be
000002c0: 39e5 883e 5992 e43d 9ce3 b93f ed1d 1fbe
000002d0: e3e7 a8bb e758 a7bd 0560 2cbc 6d62 92bf
000002e0: ce2a 683e 45a7 8cbd 6984 52be 5409 3dbf
000002f0: 8077 4c3f 93c8 c63e 9f23 aa3e c200 1d3f
00000300: 7e28 d93c f09b f43d 55ee 19be e6f6 c03d
00000310: 1def 8ebf f732 193e a605 b1bc ee93 113d
00000320: 00d8 17be 2ac7 233e 435e cebd 9ace 3d3d
00000330: db03 5bbf 10cf 213f 107d a23d fcfc ee3d
00000340: 21c0 803e 022f ed3d 85d3 f73e dcb4 893a
00000350: b5fe 6e3f ad12 2a3d b48d 8dbd 0cdf 893d
00000360: 3eb7 8ebe 4736 183e 6b26 933e f9c8 b6bc
00000370: d49d b63e 49d6 70be 4cb2 8fbd dcf2 1ebd
00000380: 655b b43e 3a08 5a3d 6fb5 d7bb ebc1 0a3f
00000390: 1c92 c7be 1549 ff3e 69f0 18be 9817 203f
000003a0: 1f74 463f c10c f73d 8cda 43bf a264 58be
000003b0: b1ac 72be d9c9 28bf bd6f c93d 476a c4be
000003c0: 71c9 043c 7e1a 6a3e b144 8bbf 14e7 233e
000003d0: 5995 3e3f 3f0c dd3e 58a0 313e 1c32 e2be
000003e0: 2060 1a3e e4bc 95be 2ebc cbbe 486d d43e
000003f0: af60 fbbe 1f5e acbe 17ac a5be 4e17 14bf

4.bias f4 [21]
0.46191865 -0.19078586 0.074123845 0.22731243 -1.781356 -0.52201676 -0.65760934 -2.4630284
0.65800613 0.23204549 -1.4852568 0.19406928 0.15029638 -1.1235508 -2.1321588 -1.6048425
-0.5224929 -1.6312366 -1.08917 -0.18936802 -1.0269649
00000000: 9a80 ec3e 5e5d 43be 3ece 973d 97c4 683e
00000010: 7903 e4bf e4a2 05bf 1659 28bf 42a2 1dc0
00000020: 1773 283f 559d 6d3e e51c bebf 19ba 463e
00000030: 4be7 193e 83d0 8fbf 4a75 08c0 7b6b cdbf
00000040: 18c2 05bf 5ccc d0bf ec69 8bbf b1e9 41be
00000050: 9673 83bf
