virtualTB/data/generator_model.pt (torch_old, 112180 bytes, 4 tensors)

0.weight f4 [128, 128]
00000000: b48b 393e 5e52 4a3d fbe5 0f3d fdb5 87bd
00000010: f071 b7bc 5f86 b53d cd1f 35bd 912d d93d
00000020: 1be6 b5bd 89c8 f53d f5f1 07be 747f 9ebb
00000030: 2775 343d df24 653d 83c5 8a3d 40b6 4dbe
00000040: 30fc 393d 13bc 093d 6d56 0a3e e170 9abd
00000050: 3c9a 2abe e17e 063d febb 0b3d 08fc 173d
00000060: 8718 c53d a6f9 57bd 2663 63bd 5317 92bd
00000070: 1540 163e 5382 5a3d 3eef 8b3d 98a6 7e3d
00000080: b681 80bd f206 19bc 0808 b53c b384 8dbd
00000090: d634 85bc 4e4a 703d 2721 a9bd 6937 4e3d
000000a0: 30e8 b9bb 9825 99bd 11d7 063d 3fcd a7bd
000000b0: 35d5 f3bd 9348 4ebd b96c 913d 58ec 28be
000000c0: 385a a1bd c3d8 373d f8f5 41bd d20d 5c3d
000000d0: 945b 5fbc fcea 04be be49 08bd fa62 d2bc
000000e0: 125c a5bd 9017 913d b5f1 cebd 8580 02be
000000f0: d3a1 393e 9c8c b9bd 2f86 083d 2e79 64bc
00000100: 8054 8a3d 4360 babd a6d2 4abd 1f85 32bc
00000110: cb9a e93d 7a6b 0abe 9164 c1bd 9710 873d
00000120: f8f5 41be d938 dabd d007 123e cc6b 8f3d
00000130: 7fde f1bc ff72 8aba bdf5 69bd 7ef1 1abd
00000140: 770c 9e3b 6f5d 90bb 7a6d 75bc 8b8e 2bbe
00000150: c3ca e5bb c8a7 803c 0c23 883c 19ec 2e3d
00000160: cf38 fbbd 30e6 a2b9 95dc 44bd bf85 9b3d
00000170: dffb 2fbe 69cd 07be 3f9f 92bc c889 a7bd
00000180: 1667 883d 18e1 b9bc fcac fa3c 0797 183e
00000190: dc5a dd3c 7d57 2c3d 06e7 babc 25da 4b3d
000001a0: 8b3b a4bd f302 863d 8a47 dfbd c749 d13c
000001b0: a29b 99bd c71e e5bd be54 d8bd 98d9 693a
000001c0: 4e22 883d dc8f 2dbd 5bd2 62bd 4b14 b5bd
000001d0: 1459 f63c 8c60 e4bc ba55 f23d 69a8 d2bc
000001e0: e615 04bd bc48 57bd fd83 713d 993e dc3c
000001f0: 4156 003e 6481 783d 6d1d 8d3c 3088 8cbd
00000200: 657c 92bc a005 3dbd a77d 84bc dc9f 1b3c
00000210: e7d8 02bd 737d 5cbc 4867 acbc b3e7 eabc
00000220: 1188 95bc bc7e 98bc 5bfe febc fb2d b9bb
00000230: 27c9 47bc 537d 353d c753 65bc 2c4a 0c3b
00000240: 034e e3bb 0f2d 9bbb 81b1 bebc 1b02 5bbc
00000250: c6c1 65bb 218a 00bd b012 0fbd 3d16 e9bc
00000260: 14d8 4fbb 3c55 32bd cabe 5cbd 858e f4bc
00000270: feeb 213b 9fbf f5bc d894 06bd 5d6a 9fbc
00000280: 2e8b 8abd 8208 01be dea0 c93c adb8 ffbc
00000290: 63ca e7bc fcdb 6ebc 4498 17bc d2b5 ce3c
000002a0: 1458 b5bb 1f9c 913b b7ad a43c 3645 dbbb
000002b0: 5074 ffbc 056d 25bd 49db 59bc bc38 a23b
000002c0: 0ad0 8fbd 84bb 373d 0e3f cfbc 532d cd3c
000002d0: 5c98 8ebc 8b25 09bd c2b4 32bd af8a 21bd
000002e0: e208 72bb f710 dabd b4a6 b2bc f5cf 0ebc
000002f0: 36bb 85bc 8dd2 1cbc a5a4 2cbd 9a3d cfbb
00000300: aae5 c5bc abe0 2abd ea90 b5bc a9a4 85bc
00000310: 1885 b0bc a06e 893c 58d9 8ebc 1d15 b4bc
00000320: 9aef 17bd 393d 6cbc 68fb 8ebd 3499 2c3c
00000330: 15e0 af39 7ff5 b9bc 5ed5 6ebb f04b fbbc
00000340: 3184 34bc 6d95 26bd efd4 89bc d4b3 b4bc
00000350: 4342 e4bc 0ac4 99bb fbe9 e5bc f6c9 da3c
00000360: 5007 cbba 34f5 3abc abf1 303c 780b f23b
00000370: 56b8 c8bd 21d2 5439 6ab7 11bc 00bd e1bc
00000380: 5730 0f3c 0ad9 20bc d65e 99bd 4e2c e13c
00000390: 3086 343c c483 2cbc 7614 7abb a77e a1bc
000003a0: 87c2 dabc 3bae 1dbc 30c7 fcbb 373a e03c
000003b0: e5cb b1bc 291b 42ba ec0f 0dbe 20e7 4a3c
000003c0: c0a7 61bc 6287 27bc 752b 09b9 4b16 dfbb
000003d0: 932c 82bc 2ad5 2cbc 7f7b b13b fb0b 5bbc
000003e0: c01f d7bc dfbd 933a 53df e3bc 3bff a2bc
000003f0: ed36 7cbb 86e7 55bc 2085 b63a a059 cabc
0.18119699 0.049394958 0.035131436 -0.066265084 -0.022393197 0.0886352 -0.04421978 0.10604394
-0.0888178 0.1200114 -0.13275893 -0.004836971 0.044057038 0.055943366 0.067759536 -0.20089054
0.04540652 0.033626627 0.13509531 -0.07541061 -0.16660398 0.032835845 0.03411483 0.03710559
0.09623819 -0.052728318 -0.055514477 -0.07133355 0.14672883 0.053346943 0.06832741 0.062170595
-0.062747404 -0.009340035 0.022098556 -0.06910076 -0.016260546 0.058664612 -0.082582764 0.050345812
-0.005673431 -0.074778736 0.032919947 -0.081934445 -0.119059004 -0.05036218 0.07100815 -0.16496408
-0.07878536 0.044884454 -0.047353715 0.053724118 -0.013632674 -0.12980264 -0.03327345 -0.025681961
-0.08074202 0.07084572 -0.10104696 -0.12744339 0.18128137 -0.09060022 0.033331092 -0.013944907
0.06754398 -0.09100392 -0.049517296 -0.010895996 0.114064775 -0.13517562 -0.0944301 0.06594961
-0.18941486 -0.10655374 0.14260793 0.070029825 -0.02952504 -0.0010562836 -0.05711912 -0.03782796
0.0048232633 -0.0044056694 -0.0149797145 -0.16753595 -0.0070126965 0.015705004 0.016618274 0.04270563
-0.12266695 -0.0003107055 -0.048061926 0.075938694 -0.17185925 -0.13261952 -0.0178982 -0.081805766
0.06660287 -0.02269034 0.030600064 0.14901362 0.027020864 0.042075623 -0.022815239 0.049768586
-0.080191694 0.06543531 -0.10902317 0.025547875 -0.07500388 -0.11187511 -0.10563038 0.00089206686
0.06647168 -0.042373523 -0.05537639 -0.08841761 0.030071773 -0.027878068 0.11832757 -0.02571507
-0.032247446 -0.0525596 0.058963764 0.026885318 0.12532903 0.06067027 0.017225945 -0.06861913
-0.017881582 -0.046147943 -0.016173197 0.009498563 -0.031945135 -0.013457644 -0.021045342 -0.028674936
-0.018253358 -0.01861512 -0.031127146 -0.0056512333 -0.012193955 0.04430897 -0.013997025 0.0021406515
-0.00693679 -0.004735596 -0.023278 -0.013367201 -0.0035058125 -0.03138173 -0.03492993 -0.028452987
-0.0031714486 -0.043538317 -0.053892888 -0.029853115 0.0024707313 -0.029998599 -0.032856792 -0.019459898
-0.06764828 -0.12600902 0.02461284 -0.03121599 -0.028294748 -0.014578816 -0.009252612 0.025233183
-0.0055341814 0.00444366 0.020102365 -0.0066916 -0.031183392 -0.040387172 -0.013296911 0.004950611
-0.07022102 0.044856563 -0.025298622 0.025046026 -0.017406635 -0.03348307 -0.043629415 -0.0394389
-0.0036931564 -0.10647767 -0.021808006 -0.008716573 -0.01632462 -0.009571684 -0.042149205 -0.006324482
-0.024157364 -0.041718166 -0.022163827 -0.016313868 -0.021547839 0.016776383 -0.017437622 -0.021982724
-0.037093736 -0.0144188935 -0.06981546 0.010534573 0.00033545555 -0.02270007 -0.0036443095 -0.030675858
-0.011017845 -0.040669847 -0.016825167 -0.022058405 -0.027863627 -0.004692559 -0.028065672 0.02670763
-0.001548985 -0.011411 0.010799806 0.007386621 -0.09800784 0.00020296175 -0.008893827 -0.027555943
0.008739552 -0.009817371 -0.07488792 0.027486946 0.011018321 -0.010529462 -0.0038159168 -0.019713713
-0.026704086 -0.009624059 -0.0077141747 0.027371509 -0.02170367 -0.000740456 -0.13775605 0.012384206
-0.013772905 -0.010225149 -0.00013081527 -0.0068080775 -0.015890395 -0.010548869 0.005416333 -0.013369556
-0.026260257 0.0011271796 -0.02781645 -0.019897094 -0.0038484887 -0.013055688 0.0013925172 -0.02470094

0.bias f4 [128]
00000000: 388b 8abc 142e abbc 70ab 88bc 9e1a c6bc
00000010: eef0 74bc cdbc af3c 24bc 86bc 937e 0abc
00000020: c693 7d3d 65fe a63a 7d44 4bbc a8e2 9bbc
00000030: 594d 8dbc 45aa cb3d a191 38bc 5a9c 23bc
00000040: 1ed8 a5bc e92a 573c fc12 59bc c7d8 5bbc
00000050: 6978 f6ba 57cb 8ebc 2c96 94bc c420 abbc
00000060: a2cd 65bc b49e 27bb cc3f 6dbc 9c8c b8bb
00000070: bdd5 75bc b61e 3abc fa6a 9abc b813 e3bb
00000080: 65a5 5abc 57c3 a7bc 30f0 58bc d1f8 bfbc
00000090: e3f9 7bbb 6a3f 123c e206 333d 1ef1 a8bc
000000a0: 58fd 98bc 87e3 663b ebe8 58bc be3f 53bb
000000b0: 6148 53bb e8b2 aebc 1dc4 50bc 8cc3 e43c
000000c0: ad01 40bc 4bea 4fba 8105 8fbc 2907 38bc
000000d0: dbd5 bcbb 56d0 15bc 26e9 d6bb d9a9 4d3d
000000e0: 694b 893c 8210 8c3c 33c5 99bc 9859 38bc
000000f0: 9355 a4bc 896a 45bc 31da eebb 753e 0bbc
00000100: 1c09 bfbc aaa4 2c3c a874 64bc f359 63bc
00000110: 5142 dbbb 9b4f 46bc 4210 a8bc f3b7 98bc
00000120: 7068 6c3c 3889 92bc 289b 9eba 4b92 f2bb
00000130: cb61 4ebc de9b 21bc 258e bf3a fe18 6cbc
00000140: a9b6 3ebc 5d89 153d 8460 2c3d c37d a1bc
00000150: 6373 63bc d628 38bc ece3 11bc 6e4f d7bb
00000160: 0f60 3bbc 9241 b3bb d606 c1bc 072f 64bc
00000170: 1d9a 7dbc a750 32bc d123 a4bc 023e 45bb
00000180: ceb6 7bba 291f a3bb 75ec 423b 1fcf 8abb
00000190: bc2f d0bc 6ece 133d 9dcc 85bc 499d 70bb
000001a0: efcc 74bc 6ee0 f53b 4a71 9cbc adea 73bc
000001b0: 0eba e7bb f019 27bc 1907 9ebc 95a5 8ebc
000001c0: 95b4 b63d 6dc2 85bc 6af7 c7bc ae72 ecbb
000001d0: ec3f 75bc 15c8 3cbc 13fb 51bc be1a 8dbc
000001e0: 5f75 2fba 47d0 84bc 7435 5ebc fc8c 253d
000001f0: 21fe a73b 5364 9fbc 4e1c 06ba fed5 95bc
-0.016912088 -0.020895995 -0.01668331 -0.024182614 -0.01495002 0.021452332 -0.016447134 -0.008453029
0.061908506 0.001274061 -0.012406466 -0.019028977 -0.017248796 0.09944586 -0.011265189 -0.009986008
-0.020244654 0.013132789 -0.013249155 -0.013418383 -0.0018804196 -0.017430944 -0.018138014 -0.020889647
-0.014026077 -0.0025576772 -0.014480542 -0.0056319963 -0.015004572 -0.011359861 -0.018849839 -0.006929841
-0.013345097 -0.020478887 -0.013240859 -0.023434075 -0.0038448505 0.008926252 0.043707736 -0.020622786
-0.018675491 0.0035230832 -0.013239126 -0.0032234038 -0.0032239186 -0.021325544 -0.01274207 0.027925275
-0.01171915 -0.0007931336 -0.01745868 -0.011232176 -0.0057627982 -0.009143909 -0.006558555 0.050210807
0.016759591 0.017097715 -0.01877079 -0.01125183 -0.020060336 -0.012049326 -0.007289194 -0.008498778
-0.023319773 0.010537306 -0.013943829 -0.013876426 -0.006691255 -0.01210394 -0.020515565 -0.018642401
0.014429197 -0.017887697 -0.0012100684 -0.0074026934 -0.012596558 -0.009863822 0.0014614506 -0.0144102555
-0.011640229 0.036507953 0.042084232 -0.019713288 -0.013882491 -0.011240205 -0.0089044385 -0.006570748
-0.011436476 -0.005470463 -0.02356283 -0.013927228 -0.015478638 -0.010883487 -0.02003661 -0.0030096774
-0.000960213 -0.00497808 0.002974299 -0.0042361165 -0.025413387 0.03608554 -0.016332919 -0.0036714843
-0.014941438 0.0075035607 -0.01909699 -0.014887494 -0.00707174 -0.010199055 -0.019290494 -0.01741294
0.08921162 -0.016328061 -0.024409968 -0.0072158193 -0.014968853 -0.011522313 -0.012816208 -0.017224666
-0.000669321 -0.016212596 -0.013562549 0.040417656 0.00512673 -0.019457018 -0.0005115912 -0.018290516

2.weight f4 [88, 128]
00000000: 6b4b 353d 6f81 d03d 16bd efbb b905 833e
00000010: 08c0 d03c aa7e fc3d 5f7a c2bd f648 4c3b
00000020: f561 87bc 3979 0e3e f924 b43d 11c1 75bb
00000030: 2aec 29bd b2fb e83b 3d59 c9bb e291 ec3d
00000040: 9955 243d 1b47 603d 7e74 45bd d0ca a83d
00000050: 248c 64bc 4c75 103d fa20 c33d 8796 3dbc
00000060: f363 44bd dbb5 d13d a3cb f4ba 2ef9 cfbd
00000070: 7ce5 043e ea12 43b9 57e7 49bd 29fe 7bbd
00000080: 18e4 c43c 796e 183e a482 0cbd 2f07 cf3d
00000090: 7c8c cdbc ec50 4abe ddef b83d 0416 e33d
000000a0: 60d4 68bd 240d 4ebc 18dd 963d cc6f 3a3e
000000b0: aa10 353d 15b7 453e 6599 833d 0460 73bd
000000c0: 8739 da3d cf44 05ba 36b7 bbbb b2f8 d03d
000000d0: 5409 c23d 17d4 113d cbe7 3d3d 7e6d c13c
000000e0: d223 cc3c 6d24 fc3c 62bb b4bd f640 3f3e
000000f0: d654 29bd 932b 57bd ecb0 57bd 72bb 0c3d
00000100: 1b27 76bd 3e7b 603e b8b4 01be e59e ba3d
00000110: 33cc dc3c 4c0c 39be f7bc debd 77e8 e1bd
00000120: 7c81 a0bd 7699 a43d 1666 c23c cf1c 94bd
00000130: 23bd 04bd 05d7 bbbc e152 8d3d 5051 c93d
00000140: 5149 8ebd 29c9 763c 99f5 ae3d d0bf 06be
00000150: 3ec7 4fbc a0fe 5b3d aaa4 6dbc dcfa b23c
00000160: 9ff8 00bd 1c51 283d 4e3f a43d 1af1 0e3d
00000170: 51f0 dd3c 03d6 dfbc 1268 5dbd a68f bbbc
00000180: 65a5 dc3c 015e 4f3d d6ae ebbc 556b 9b3d
00000190: 513c 60bc 82b4 ff3c 787a e93c b1f5 1dbb
000001a0: 9198 8e3d f749 083e a4a6 c6bc 7c48 0abd
000001b0: a027 fd3c d853 3c3e 8d8a 8a3b 59dd ca3c
000001c0: 74c1 a63d b2fd 223d d62d dfbc 65c0 1b3e
000001d0: bd06 fbbc 50b7 16be c4c6 db3b 8d80 16be
000001e0: fef0 9bbb b5b5 56bc 7bd8 ecbc 41c1 053d
000001f0: d031 d6bb 32c1 f33d 823e bb3d 5dc8 5c3d
00000200: 5bf6 093d 60cf 713d 7506 2e3d e5eb 0cbd
00000210: 58e8 b8bd ba10 4ebc c95e 5b3d 5175 a83d
00000220: d4c8 8f3d 4980 dabc 091b a13d 3036 543e
00000230: d8e4 853b 5868 0a3e 83d6 2abc 1eed 4ebb
00000240: 8cfc 423e 4dc2 b53d 3192 aebb 4168 a0bd
00000250: 42ca 28bb f090 fd3d be16 a83c 9630 b93a
00000260: 09a0 fa3d 6786 443e 5a13 3c3e 1db1 053d
00000270: 6ab6 103e ab92 b8bd 388e 0ebc cae2 3e3d
00000280: df56 b13c 5c81 7dbd b6cd 3f3e 7d0f 143e
00000290: 7fa5 643d b02c de3d f9a9 6b3d 58d8 51bd
000002a0: f8d1 163e 55b7 6e3d 7523 24bd 728c bdbd
000002b0: 0e0b c33d a50f c4bd 29f7 df3d d97f 3dbd
000002c0: 7193 61bd 631c bc3d 61b1 36bd eab9 723d
000002d0: 11a5 c93d da45 fb3c 17e4 0f3e 0afa 943d
000002e0: abc2 84bc 9213 843d 4444 cebc 31d6 6a3d
000002f0: 773e 823d d6de 0d3e b592 643e f403 7ebd
00000300: 82bb 103d 6542 363c 2ede ae3c 6f4a abbc
00000310: ce81 f53d 635a 1c3d d660 663d f7c7 603c
00000320: 57e8 d03d 33d5 02bc 0416 14bd d64a 3ebd
00000330: fdde 92ba 8a67 1e3d 4f7f 86bb cbed 1fbe
00000340: b0ed b0bb ea6a a6bd 86d5 f93d 9a32 ab3d
00000350: dad7 953c 6ac4 97bc 5c01 683c aa81 d73d
00000360: 4915 a839 bf7e 2c3d 3d2b 98bc 38ee cf3d
00000370: 2675 043e 5e9c ffbc dcda 283d ec7c 06bd
00000380: 2d55 7abd 723d a13c fa5b 5ebd 049c 093d
00000390: f3ed b33d 97eb 883d 7b16 003e 788c a7bc
000003a0: 8da3 ed3c f143 31be 9462 a3ba c675 c23d
000003b0: 23a7 f7bc 2ea9 973d f221 003d cf9a a43c
000003c0: 051f 1e3c c732 073d 48e3 e5bd 0b06 a2bd
000003d0: 62b4 a5bd 9e9e b1bb c650 7a3c b4df 1d3d
000003e0: 46c5 49bd f371 f8bc a712 3ebd fbef b4bd
000003f0: 7ad3 5f3e cb22 ea3d 2eb2 60bd abeb 6fbd
0.044261377 0.101809375 -0.007316242 0.25590304 0.025482193 0.12328847 -0.09495997 0.0031171418
-0.016526202 0.1391343 0.087961145 -0.003749911 -0.04148499 0.0071100825 -0.0061446712 0.115512624
0.040120695 0.05475531 -0.0482068 0.082418084 -0.013949428 0.035268113 0.09527774 -0.011571533
-0.04794688 0.10239764 -0.0018676411 -0.10154949 0.12978166 -0.00018603695 -0.04929289 -0.061521683
0.024034545 0.14885892 -0.034304276 0.10108792 -0.025091402 -0.19757432 0.09030125 0.110881835
-0.05684316 -0.012576375 0.07366389 0.1820671 0.044205345 0.19308122 0.06425742 -0.05941774
0.10655504 -0.00050838006 -0.0057286276 0.10203685 0.094744354 0.035602655 0.046363633 0.02361178
0.024919424 0.030779088 -0.08824803 0.18677124 -0.04134067 -0.05253179 -0.05265896 0.03435845
-0.060095888 0.21922013 -0.12666595 0.09112338 0.026952839 -0.18071097 -0.10875886 -0.11030667
-0.07837197 0.08037083 0.023730319 -0.07232057 -0.032406937 -0.022929678 0.069005735 0.09829962
-0.06947578 0.015062609 0.08542938 -0.13159108 -0.01268178 0.053709626 -0.014504591 0.021848135
-0.031487104 0.041092977 0.08019887 0.0348979 0.02709213 -0.027323728 -0.054054327 -0.022895645
0.026934335 0.05062676 -0.028769892 0.07588831 -0.013686256 0.031214003 0.02850078 -0.0024102742
0.069626935 0.13309465 -0.024249382 -0.033760533 0.030902684 0.18391359 0.0042279423 0.02476375
0.08142367 0.039792724 -0.027243536 0.15210111 -0.030642862 -0.14718366 0.0067070443 -0.14697476
-0.004758953 -0.013104846 -0.02891182 0.032655004 -0.0065367 0.119020835 0.09142782 0.05390202
0.03368221 0.05903566 0.042486627 -0.034404654 -0.09028691 -0.01257723 0.05355719 0.08225501
0.07020727 -0.0266725 0.07866485 0.20723796 0.004086118 0.13516366 -0.01042712 -0.0031574438
0.19041651 0.088749506 -0.005327486 -0.07832385 -0.002575532 0.1238116 0.020518657 0.001412886
0.122375555 0.19191895 0.18366757 0.03263961 0.14132085 -0.0901235 -0.0087009 0.046603
0.021647869 -0.061890945 0.18730816 0.14459033 0.055821892 0.10848367 0.057535145 -0.051231712
0.14728534 0.058280308 -0.040072877 -0.092553034 0.09523593 -0.095732965 0.10935814 -0.046264503
-0.05507225 0.09185102 -0.044602755 0.059259333 0.09845937 0.030672956 0.14051853 0.07274254
-0.016206106 0.06449045 -0.025179036 0.057333175 0.063595705 0.13854536 0.2232159 -0.06201549
0.03533507 0.011124228 0.021346178 -0.020909516 0.11987649 0.038172137 0.056244694 0.01371955
0.10200565 -0.007985401 -0.03615381 -0.046458088 -0.0011205372 0.03867296 -0.004104532 -0.15618055
-0.0053994283 -0.08125861 0.121989295 0.08359261 0.018291403 -0.018526275 0.01416048 0.10522778
0.00032059316 0.042113062 -0.018575305 0.101528585 0.12935314 -0.031202491 0.041224346 -0.03283398
-0.061116386 0.01968262 -0.054286934 0.033596054 0.087856196 0.0668556 0.12508576 -0.020452723
0.029008651 -0.17311074 -0.0012465292 0.0949512 -0.030231064 0.07405315 0.031282373 0.02009335
0.00965095 0.03300741 -0.11224991 -0.07911309 -0.08091046 -0.00542052 0.015278047 0.038543418
-0.0492604 -0.030327773 -0.046404507 -0.08834835 0.21858016 0.114324175 -0.054857425 -0.05857436

2.bias f4 [88]
00000000: 42a2 473d 0d92 283d 2411 ba3c 8b75 cc3c
00000010: 9724 ec3d 99b9 173d 8f8f 653d b298 3d3d
00000020: 8122 073d 37e3 de3d 8939 913d d314 973d
00000030: ccd3 973d d386 edbc 920f 2b3d dccc a93c
00000040: 9f7c dabc fc15 553d 5b08 883c 525c a53d
00000050: c312 a63d 1cb8 0b3e bf44 d3bb c682 e3bb
00000060: 0058 af3d e17a 813d b64d 733d df8f e33b
00000070: 760c 883d 9922 ee3d a36c b9bc 3a44 0d3e
00000080: 16ec 2e3d 995c f63c 9383 a23d 8d0e 7d3d
00000090: 7dc9 5d3b 5e69 03bc fcc3 813b 2459 83be
000000a0: ec90 37be 89bc 5dbe c043 53be 9e6d 43be
000000b0: af09 d93d d6cd a53d 4a58 233e e499 803d
000000c0: 7e4c 8b3d c7c9 aa3b 911c 2bbe 5ac9 47be
000000d0: e136 52be 42e8 3dbe 9719 6e3d 6561 013e
000000e0: cce2 603d 0dd3 8e3d c83b 6a3d c5f3 d53d
000000f0: 3afd 4d3e 3afd 4dbe 4b85 a83d 4a85 a8bd
00000100: 799b eabd 263f da3d d8b5 84bd 168f 73be
00000110: 6bf3 f3bd a0ee 053e 51f0 d33c 2342 603e
00000120: 5002 a9bb 9eba 973d b4e0 b83d 2059 423d
00000130: 5f86 66be 113b a1bc efd8 14be e824 2cbd
00000140: 3054 6bbd fb7f e6bd 990c 40be 70ab e4bd
00000150: effd 51be e958 ddbd 74cc debc 4346 ef3d
0.048738725 0.04115491 0.022713251 0.024958393 0.115304165 0.037042234 0.05604511 0.0462882
0.03299189 0.108831815 0.07091052 0.07377019 0.07413444 -0.028994953 0.041762896 0.020727567
-0.026670752 0.05202292 0.016605547 0.08074249 0.08109047 0.13644451 -0.006447404 -0.0069430796
0.085617065 0.063222654 0.059400283 0.006944641 0.06643002 0.11627693 -0.02263481 0.13795558
0.042705618 0.03007345 0.07935252 0.061781455 0.003384202 -0.008020727 0.0039601307 -0.25653946
-0.17926377 -0.21653952 -0.20631313 -0.19084784 0.1059755 0.08095901 0.15951648 0.06279352
0.06801699 0.005212042 -0.16710116 -0.19510403 -0.20528747 -0.1854563 0.058129873 0.1263481
0.05490379 0.069738485 0.057185918 0.10446886 0.2011613 -0.2011613 0.082285486 -0.08228548
-0.11455435 0.10656576 -0.064799964 -0.23785052 -0.11911663 0.1307931 0.025871428 0.21900229
-0.0051577464 0.07408641 0.09027234 0.047448277 -0.22512196 -0.019681485 -0.14535879 -0.042027384
-0.057453334 -0.11254879 -0.18754806 -0.111655116 -0.20507024 -0.10807974 -0.0271971 0.11683323
