virtualTB/data/leave_model.pt (torch_old, 282436 bytes, 6 tensors)

0.weight f4 [128, 88]
00000000: 0cf6 a2be ad0e ea3c 04d8 53be 3028 f7bd
00000010: 994b f5bd 3769 3f3e 0d14 00be d842 80be
00000020: dcb4 a2be 3a75 bcbd 5278 c43c 3c42 44bd
00000030: 94f4 bfbd 6eb3 a7bd fd0c 92be bc27 e9bd
00000040: 92d5 dcbd c333 133e 1b9e e8bd 0b9f 94be
00000050: 9c9c 83bd 9f33 733d 99f8 abbd 917b 35be
00000060: 3ebd 05be 8fb8 32bd 2c2e aebd 1c7d d1bd
00000070: f91b c53a 4dfd 88be befb fcbd 356b 00be
00000080: 5e7c 6fbe 17cc 31be 3332 99bd 3f27 0f3e
00000090: 3be3 42be 903e 5cbe 5113 88be 2eb4 263d
000000a0: 59e9 f63d 3cdd cc3d 0dad 5d3c 7e4e 23ba
000000b0: 46ba 9ebd 808c 6abe 069f acbe f20d f2bd
000000c0: fa2a 2d39 046e e4be 75a6 9cbd b58b 37be
000000d0: c635 363e a0e6 99bd f584 293e d58d 79be
000000e0: e070 88be 8eec d2bd bb7e b63d b8eb 08be
000000f0: 4f91 b2bd d727 89be 3b3d 24bd 2792 fa3d
00000100: effd 10bf 3723 91bd 3725 4d3c 9d67 343e
00000110: d342 dbbf eb7f 98bd c728 01be 1a26 d0bd
00000120: ba0c 84bd 8ccd 763d 3055 06be e147 903d
00000130: 2af8 173e ea23 4dbe 7f0b 29bf acbd cc3d
00000140: ea09 86be ba3c 87be a4f6 ddbd ee34 bebf
00000150: cb87 f9be 8587 983d b0f3 51bc 90b7 fbba
00000160: 985b 13be 155a 473d fb22 9c3b 47b3 8a3b
00000170: 0a53 133e 5bf9 ffbd 0051 2e3e a4d4 ac3c
00000180: 6df5 e43c 165a 823d 1c61 17be a2ae d8bb
00000190: 34e9 cf3d 1730 1ebe cc08 c4bd 1c8b 213e
000001a0: f738 973d a241 023f 7411 1c3d 55a3 9cbe
000001b0: 4e14 813d 565a f9bd ce7a d93d 7aff 423e
000001c0: cf26 6cbc 3d01 a9bd 08d0 1c3f 196d dc3d
000001d0: 6e0d 8bbe e1fe 0a3e 5476 ba3d 87d8 e5bd
000001e0: 4c02 253e 1973 333e b93c 913e c2fb c5be
000001f0: e5bd b7be 0dd8 e3be 6343 973d d49b 2cbd
00000200: 5e7d 733f fa28 febe 8a77 43bf 6d42 3b3f
00000210: 9cae 983e 29a3 3f3e d891 f03d 7eab 103e
00000220: e898 1a3e 9ccd 633c d2b8 dcbd 8ec5 683f
00000230: b64e a13d d185 1fbe 48c0 e0bd 26f5 1d3e
00000240: 8207 363e b74a 993e 2922 60bd bcc3 2abe
00000250: e93c 5e3e 1910 0cbe 0964 993e 4a6c 81be
00000260: 6c28 0fba 802f 823e a321 1dbe 5063 df3e
00000270: 0a98 9bbe f3c5 8ebe 56c7 8e3e 77d5 fa3c
00000280: 46b4 223e 6fae 833c 3a17 4ebd e20f 953d
00000290: 4d02 3d3f b1bb 20be 224d f03e 6893 95be
000002a0: dc88 b5bd 68c8 7bbd 7750 b1bd 3e37 af3f
000002b0: 1e2c 22bf 3d0c 19bb 2d4e 20bc 83d7 c33d
000002c0: 186b 073d 3403 323e de37 c4ba e895 2abe
000002d0: d2b8 fdbc 2deb 28be f072 2ebe d138 093f
000002e0: ec53 f63d 414c 59bd 0cce 533d 5f1b 0bbe
000002f0: b2e3 dbbd e214 913e 0215 2f3e 720a 6b3e
00000300: eef3 143e 74c2 9c3e 6d83 3a3c ce79 b3be
00000310: a2ba 2bbe 32e1 133e 77f9 043d 3288 4ebe
00000320: 0fc8 05bc 5271 dc3e 0332 333f 2275 9f3d
00000330: 1ad2 bfbd da5d d9be 2f2e 79be fe55 ab3e
00000340: 2576 60bd c678 b7be f271 0f3e 6050 88be
00000350: cc98 433e b2c2 133d 8770 f63c 1005 96bd
00000360: 1464 debe cc89 bfbf d5c8 bebf 698d 1d3e
00000370: b2d9 fd3e 15d1 243e 62c2 99bd 02cf d0bd
00000380: 24e8 db3d b614 a1bd 16c7 9ebd 612a 67bf
00000390: 7ba5 bd3e 00fb 953f 5465 363f 37ab a93d
000003a0: be34 1d3d b2fe d23d a3d7 103d 980f 2a3e
000003b0: 1336 f3bc 0148 df3d 4820 c5bc 668f d5bd
000003c0: 92b7 83bd cc90 c2bd 386d 1b3e d267 2dbe
000003d0: 4067 bbbe 69f7 d2bd dff8 343e a5be 0f3e
000003e0: 61a0 febd 08af e4be 45da 963e eb24 403e
000003f0: a232 e7be ff2f babd ae34 123f 8901 433f
-0.31828344 0.028571451 -0.20687872 -0.12068212 -0.1197731 0.1869248 -0.12507649 -0.25050998
-0.3177861 -0.09202047 0.023983154 -0.04791473 -0.093728215 -0.0818852 -0.28525534 -0.11384532
-0.10782923 0.14375214 -0.11358281 -0.2902759 -0.06426355 0.0593754 -0.083970256 -0.17722918
-0.13060471 -0.04363304 -0.085049 -0.10228941 0.0015038244 -0.26755753 -0.123527035 -0.12540896
-0.23387286 -0.1736301 -0.07480278 0.13979815 -0.19031994 -0.2150824 -0.26577237 0.040699176
0.12056226 0.100031346 0.013530028 -0.0006229653 -0.077503726 -0.22905159 -0.33715075 -0.11819066
0.00016514576 -0.44615185 -0.07648937 -0.17924388 0.1779395 -0.07514691 0.16554625 -0.24370511
-0.26648617 -0.102990255 0.08910891 -0.1337117 -0.08719122 -0.26788208 -0.040097456 0.122349076
-0.5663747 -0.07086795 0.01252108 0.1761765 -1.7129768 -0.074462734 -0.12613212 -0.10163517
-0.0644774 0.06025462 -0.13118434 0.0704496 0.14840761 -0.20033231 -0.66033167 0.099971145
-0.2617944 -0.26413518 -0.108380586 -1.4859903 -0.48736414 0.07447723 -0.012814447 -0.0019204486
-0.14390409 0.048669893 0.004764912 0.0042327973 0.14387146 -0.12498733 0.17023087 0.021097489
0.02794906 0.06364839 -0.14783138 -0.0066126147 0.10151902 -0.15448032 -0.0957199 0.15775722
0.07383912 0.508814 0.038102582 -0.30593362 0.06302701 -0.12175433 0.10619126 0.19042769
-0.01441355 -0.08252189 0.6125493 0.10762996 -0.27158684 0.13573791 0.091046005 -0.1122294
0.16114157 0.17524375 0.2836664 -0.38668638 -0.35887066 -0.4450077 0.073859 -0.042140797
0.9511317 -0.49640638 -0.7635428 0.7314823 0.29820716 0.18714584 0.117465675 0.14127919
0.15097392 0.013904002 -0.10777439 0.90926445 0.07876341 -0.1557839 -0.10974175 0.15425548
0.17776302 0.29939815 -0.054720078 -0.16676229 0.21702923 -0.13678016 0.29959133 -0.2527793
-0.00054610404 0.25426865 -0.15344863 0.43630457 -0.30389434 -0.27885398 0.27886456 0.030619366
0.15889081 0.016074387 -0.05031512 0.0727842 0.73831636 -0.15696599 0.46933848 -0.29214025
-0.088639945 -0.06147042 -0.086579256 1.3688734 -0.6334857 -0.0023353242 -0.009784264 0.0956259
0.033061117 0.17384034 -0.0014970263 -0.16658747 -0.030971918 -0.16495962 -0.17036033 0.5360232
0.120277256 -0.053051237 0.051710173 -0.1358466 -0.10736789 0.28336245 0.17097858 0.22953203
0.14546177 0.30617106 0.011383873 -0.35053867 -0.16770414 0.14441374 0.03246447 -0.20169142
-0.0081653735 0.43055207 0.69998187 0.07786013 -0.093662456 -0.42454416 -0.24334024 0.33464044
-0.05480017 -0.3583433 0.1400831 -0.2662382 0.19101256 0.036074348 0.030082954 -0.07325184
-0.4343573 -1.4963927 -1.4905039 0.15385975 0.4958015 0.16095383 -0.07507779 -0.101957336
0.10737637 -0.078652784 -0.077528164 -0.9029904 0.37040314 1.1717224 0.71248364 0.0828461
0.038380377 0.103024855 0.035361897 0.16607511 -0.02968887 0.109024055 -0.024063244 -0.10427742
-0.06431498 -0.09500274 0.15178382 -0.16934136 -0.3660221 -0.10301096 0.17673062 0.14037569
-0.124329336 -0.44664788 0.294634 0.18764083 -0.45155817 -0.09091186 0.5711163 0.7617422

0.bias f4 [128]
00000000: d5bd ccbd 0bcb 7d3c 3740 a63c 63a1 4dbd
00000010: bad9 9bbd bce3 6ebb b8ca eabb e6c0 9dbc
00000020: a647 93bd 693a d7bc f3c8 7b3c a672 283b
00000030: 7849 1abd 27a1 c13c 8d84 59bd 4ff3 b3bd
00000040: fc85 d23c f408 99bd e022 7dbd 2417 f63c
00000050: 6ae3 66bd 1bce 143d aa13 c3bc 513a d0bd
00000060: 9f95 c2bd 42ab a4bd 4fa0 49bd 509e cabc
00000070: 8bcc f2bd 3aa2 123c 15b3 01be a3ea 923c
00000080: 08cf bdbd 82e5 e83c 034b 0ebd dc49 0cbd
00000090: dcdb e8bd b251 0c3d 623d 06bd fc35 263d
000000a0: e87f b4bd a89c 6e3b 95bc c8bd 8ab8 58bc
000000b0: c5a6 86bd b838 e4bd 0f57 b23c c9ad 00bd
000000c0: a91e d53c 1dfa cabd 1ee8 a5bb ccd7 023d
000000d0: d0c2 d2bc 9bc2 88bd 11d6 24be bf97 ad3c
000000e0: 4d1b 3ebd 2cea 01be ffdc b6bd 238a aabc
000000f0: d127 433c 339d 073d c7c9 e1bd 0c32 de3b
00000100: 7cc5 d7bc 9cfb 29bd 6b40 dbbb c471 adbc
00000110: a1f4 03be 324e a7bd 1487 103d 1e25 f3bd
00000120: 51a0 b5bd b0cb a83b e068 abbc 5110 14bd
00000130: 4ed2 debd ce87 003d eb91 853c 5bd0 b8bd
00000140: defe 88bb f05f 9abd 35b0 a7bc e01a 163d
00000150: df8c 95bd f63c 1ebe bc63 9cbd 18bb a7bd
00000160: 8d4f 26bd 3aa0 a03c e078 b4bd 9722 56bd
00000170: 8ea9 91bd 36bc bdbd 7052 a4bd 1e08 e0bd
00000180: 9da9 013d a1e2 8ebd 6f39 4fbd 13b1 b6bd
00000190: b1f8 debc b5f2 b13c 043c 41bd 00be f7bc
000001a0: b0cc d4bd 5c4b 4ebd 29bf 87bd 2563 2b3c
000001b0: 8295 b6bc 026d a3bd 3895 32bd 2e1a 96bd
000001c0: 7d1a c7bd ace0 d1bd f28a e3bb f68e 8bbd
000001d0: fb5f 893c e764 c5bd 963a 273c 633f f5bc
000001e0: 29df c93c 8dbe af3c b592 b2bd 8efa ab3c
000001f0: 36b1 7cbd 99d4 9a3c ade9 c0bc 0026 ee3c
-0.09997145 0.015490304 0.020294292 -0.05020274 -0.076098874 -0.0036451658 -0.0071652792 -0.01925702
-0.071914 -0.02627297 0.015367734 0.0025703101 -0.03766772 0.023636414 -0.053104926 -0.08786642
0.025698654 -0.07472411 -0.061800838 0.030040331 -0.056369223 0.03632937 -0.023813087 -0.10167373
-0.09501194 -0.08040477 -0.049225148 -0.024733692 -0.1185542 0.008949811 -0.1266597 0.01793415
-0.09268004 0.02842975 -0.034739505 -0.034250125 -0.1137006 0.0342576 -0.032773383 0.040578827
-0.08813459 0.0036409292 -0.09801594 -0.013227591 -0.065747775 -0.11143631 0.021770028 -0.031415734
0.026015596 -0.099109866 -0.005063071 0.03194408 -0.02572766 -0.06677743 -0.16097285 0.021190522
-0.046412755 -0.12686986 -0.089288704 -0.020817822 0.011911348 0.0331089 -0.11024814 0.0067808684
-0.026339285 -0.04149972 -0.006691029 -0.021172412 -0.12886287 -0.081692114 0.03528507 -0.11872314
-0.088684686 0.0051512346 -0.020924032 -0.036148373 -0.10879956 0.031379513 0.01630493 -0.09024116
-0.004180773 -0.0753783 -0.020469764 0.036646724 -0.0730226 -0.15452942 -0.0763621 -0.08189982
-0.04060321 0.019607652 -0.088121176 -0.05227908 -0.07112418 -0.09264414 -0.08023536 -0.10939048
0.031655896 -0.0697682 -0.050591882 -0.08920493 -0.027218195 0.021722177 -0.047176376 -0.030241966
-0.103906035 -0.050364837 -0.06628258 0.01046065 -0.022288088 -0.07979776 -0.043599337 -0.07329212
-0.09721849 -0.10247931 -0.006944054 -0.06814377 0.0167694 -0.09638386 0.010206839 -0.029937452
0.024642544 0.021453166 -0.087193884 0.020993497 -0.06169244 0.018900203 -0.023548925 0.029070854

2.weight f4 [256, 128]
00000000: f6ca f23d de61 62be 524a 8a3e 20d7 663d
00000010: 9dc6 9cbf 8664 e4bd 0dfa 9dbe 9536 de3c
00000020: 13c1 e93b cfd7 0fbf 11e3 1fbe 89e4 453e
00000030: aa0b 943f eb96 a8bd f8b1 67be 6fad 92bd
00000040: b21e 513e b4c7 06be 4c97 883c 0a93 953d
00000050: 0f5a 2c3e ddae a13e b3dd 503e 7ed4 b13e
00000060: bf76 65bd ac8e 4f3f afe2 afbe 5c73 793f
00000070: 6dd8 963e a445 ab3e 11a3 2e3f db14 9cbd
00000080: 7edf d1bd 57e6 0bbe 1ee6 fd3e 7369 1fbe
00000090: f486 7dbc 6448 833e 708e 4ebe c400 cb3e
000000a0: eb5d e5be 5143 743f 4fc7 b13d 90f5 77be
000000b0: ce52 9bbc b417 01bf 3ac5 4e3d 450b fdbd
000000c0: 0736 e53c 4154 923d ba9f 1abd 2cc8 f5bc
000000d0: b80d 84be 5d93 7dbe 123b 5c3f cb3d 86be
000000e0: df9e a5bd 688c 7ebf 15dc cfbe 160c 42bb
000000f0: 4d37 fe3d f4fa 81be f930 003f af6c cebc
00000100: f010 883e 59e8 ae3d 706e f6be 5c79 34bf
00000110: eacf 11be f76c 5e3d 20b5 4dbc 2b2f 23be
00000120: f8b3 31be 37b8 2ebd f19c 89be b67e 3f3f
00000130: 8d61 603e 06cc c2bd 0373 0ebf c7cc 4fbe
00000140: 570f 51be 795c 9d3d 7591 f3be 06e6 e23d
00000150: 6b6a c4bd 4e03 2abe f4b6 94bd d4a9 b53e
00000160: 2f72 1e3e b7da ff3e fb23 54bd 49c4 9fbd
00000170: ed2a b6bd 5735 493f 7808 453e 05ad 6a3c
00000180: f6ca 69be 9bcc 8cbd fe6b 013f 2ac7 42be
00000190: 7398 cebe 15d0 733e 112c 3fbf 7f96 e4be
000001a0: 165a 6ebf 64c7 e4be 8e64 d2bc daf4 04be
000001b0: 42c5 953e 2357 3bbe 2ddc 8a3e 01a0 1b3f
000001c0: 78a8 1cbf baf0 6ebe effe 9bbd be30 563e
000001d0: 25cd 173c c5cf 6f3e 6d57 b53d 5494 863e
000001e0: 8228 6abe 7f8d 11bf c530 183d c64d 383e
000001f0: e854 d83e 18db a5be 0a4e 353e 0884 9abe
00000200: 38f1 523c 7380 283e fab3 373d cf0f f03d
00000210: 5911 d13c eef2 84bd b54f 143d 7e01 24be
00000220: 3d0e 663c 48b3 fcbd 3e94 aa3d 8a9e 28bd
00000230: fc10 303e 9f29 81bd 6ee9 303d 87c0 eb3d
00000240: 625a aa3c 7d7e 9fbd 5d62 96be 0fe0 36be
00000250: 6579 0f3e ada1 853d 9f8e ebbd f8c6 e5bd
00000260: e709 023e 0eee 843e 20e2 dc3e d3e4 b83f
00000270: dcd3 9abd 9579 873e 454e 493e 9a5c 213e
00000280: 0bf3 463e 8381 2cbb 8eba 88bb 8c24 a43c
00000290: adf5 863e 4f7a f6bd 734d f8bd 78df f13d
000002a0: e1cb 863d 0471 6ebe b899 3b3e 021d 86bc
000002b0: 1279 8cbd ff12 9f3e 2753 cdbd 02cb eabd
000002c0: ec92 173e bd1e 4f3d c7b1 8b3e 519b 60bb
000002d0: d4cb d53d 2b5c 823e 3589 8cbe 9190 bebc
000002e0: 12b7 96bc 8d8a 5bbe b4c3 afbd e459 6cbd
000002f0: e365 203e 84fe f53d 8953 a9be 5bb3 da3d
00000300: 4872 723e 328a 583d 17e9 a43c 2e3c 533d
00000310: 8465 b23d e989 533e 4347 9e3d 0965 20bc
00000320: 04ac f63d c538 8bbd 805f 0d3e d462 95be
00000330: 1518 d03d 9afb 223c 8d40 283e 7065 c13e
00000340: c239 1f3d 9869 6b3e c5a5 43be 1601 ca3d
00000350: cfcd 8abd c90e da3d f52b 203e 9839 a23d
00000360: e93a ae3d 770a 5f3e eecf 7ebd 4208 a03d
00000370: acef 043c 5528 dcbc 225d 573e 2d47 0b3e
00000380: ebd7 c03d 6ad5 8bbd 4c31 a8bd d1d2 fc3d
00000390: 7135 173d 48f2 8d3b 983d f83b ffef 3e3d
000003a0: f7d7 613e 1419 adbd f8b4 473d 4dca 123e
000003b0: 412a 32be 1aae ac3d c12f d93e e6a0 3abc
000003c0: fe1e 143d b77a 683e b795 bfbc c8e3 273d
000003d0: 444b 96bd c6b7 cbbd 814d 8ebc 0e8c 81be
000003e0: 3251 bcbc 372c 8d3c 326c 623e 251a 28be
000003f0: 8d48 6bba 6949 bb3d 0605 14be dc0d 8ebc
0.11855118 -0.22107646 0.27009827 0.056357503 -1.2248112 -0.11151986 -0.30854836 0.027125636
0.007133612 -0.5618867 -0.15613963 0.1932546 1.156606 -0.0823191 -0.22626483 -0.07161986
0.20421866 -0.13162118 0.016673706 0.07303436 0.1683123 0.31578723 0.20397072 0.3473243
-0.05602145 0.81077075 -0.34352633 0.9744165 0.29461995 0.3345157 0.6821757 -0.07621165
-0.10247706 -0.13662086 0.49589628 -0.1556757 -0.01547407 0.25641167 -0.20171523 0.39649022
-0.44798216 0.95415217 0.08680593 -0.24214768 -0.018960383 -0.50426793 0.05048106 -0.12355665
0.027979864 0.071449764 -0.037749983 -0.030002676 -0.25791717 -0.24763246 0.86027634 -0.2621902
-0.08086943 -0.9943299 -0.40597597 -0.0029609255 0.124128915 -0.25386775 0.50074726 -0.025198309
0.26575422 0.085404105 -0.48131132 -0.7049768 -0.14239469 0.054303136 -0.012555391 -0.15935962
-0.17353809 -0.04265615 -0.2687755 0.7480272 0.21912213 -0.09511571 -0.55644244 -0.2029296
-0.20416008 0.076836534 -0.47571912 0.1107903 -0.0959061 -0.16602823 -0.07261458 0.3548113
0.15473245 0.49971554 -0.051792126 -0.0780111 -0.08894906 0.78597015 0.19241512 0.014323478
-0.2283133 -0.06874963 0.5055541 -0.19021288 -0.40350685 0.23809846 -0.74676615 -0.4464607
-0.9310621 -0.44683373 -0.025682714 -0.12984028 0.29252058 -0.18294959 0.27121106 0.6079102
-0.6119456 -0.23334017 -0.07616984 0.20917031 0.009265219 0.23419102 0.08854566 0.2628504
-0.22867015 -0.5685653 0.037155885 0.17998418 0.42252278 -0.32393718 0.17705551 -0.30178857
0.012874894 0.1645525 0.044849373 0.11721765 0.025520967 -0.06491648 0.036208827 -0.16016194
0.014041481 -0.12338883 0.08329056 -0.04116682 0.17193979 -0.06306767 0.043191366 0.11511331
0.020795051 -0.077877976 -0.2937192 -0.17858909 0.14011152 0.06524978 -0.11501812 -0.11219591
0.1269909 0.2596287 0.4314127 1.4444832 -0.0755994 0.26459947 0.19658764 0.15757981
0.19428651 -0.0026322312 -0.0041726297 0.020036958 0.2635931 -0.12035047 -0.12124147 0.118102014
0.065818556 -0.232853 0.18320358 -0.016371254 -0.0685903 0.3106918 -0.10025626 -0.11464502
0.1480214 0.050566424 0.2728407 -0.0034272263 0.10439268 0.25460944 -0.2744843 -0.023262294
-0.018397842 -0.21439572 -0.08582249 -0.057702914 0.15663867 0.12011436 -0.33071545 0.106787406
0.23676407 0.05286617 0.020130677 0.051571064 0.08710769 0.20658077 0.07728436 -0.009789714
0.12044528 -0.06797937 0.13805962 -0.29176962 0.10160843 0.009947682 0.16430874 0.37772703
0.03887344 0.229895 -0.19106205 0.098634884 -0.06777536 0.10647351 0.15641768 0.079211414
0.0850733 0.21781336 -0.062210016 0.07814075 0.008113783 -0.0268747 0.21031621 0.1360137
0.09416183 -0.06827815 -0.08212528 0.123448975 0.0369162 0.0043318607 0.007575702 0.046615597
0.2205504 -0.08452049 0.04875657 0.14334984 -0.17398931 0.08431645 0.42419246 -0.0113909
0.03616237 0.22703062 -0.02338682 0.040988714 -0.073385745 -0.099471614 -0.017370941 -0.25302166
-0.022987936 0.017232997 0.22111586 -0.16416223 -0.00089753495 0.09144861 -0.14455041 -0.017340593

2.bias f4 [256]
00000000: bdda ec3b 34c9 813d ce26 77bd 1b9f e13d
00000010: d433 71bd 6af8 82bd 930d f4bd cb2c 243d
00000020: 4490 e13d a8f5 3f3b 5f82 aabc acbe 78bd
00000030: 9f18 59be 5a6e 393d c79d 603d 49ab 383d
00000040: 62aa 8d3d 954e 56bd 6b56 263c f2de ccbc
00000050: 3301 86bd 20b2 f23c de08 79bd 1de8 96bd
00000060: 677e a2bd 444b 88bd f0fa 633d 3a85 7a3d
00000070: 2c1f 2ebd 477f 373d 2a9a 51bd 7c94 033d
00000080: 55a6 4cbd 1935 2cbe 46dd f13c d2d0 7bbd
00000090: d2d3 7bbd 9202 1ebe 71ff 3cbd 2caf 85bd
000000a0: adbf 79bd bcc6 51bd fe49 373d ac07 75bd
000000b0: a9d3 c1bd 8a01 e3bd 1a1c 443d d640 843d
000000c0: 6b62 433d b2b2 71bd 9138 55bd af8d f43c
000000d0: 293d 403d ea8e 75bd 103f 2dbd 1322 bb3c
000000e0: c952 f43c a282 063d 3b75 88bc 640d 87bd
000000f0: ff60 67bc f4c2 5a3d d28a d3bc ded1 873d
00000100: e301 8d3c 480b eabc e14e 983d 63b9 bb3c
00000110: f548 8abd 3da3 043d c67e 403d 90ea a9bd
00000120: 344d 59bd 779b e1bc d82e 7bbd 157b 223d
00000130: 9830 9fbc 2810 293d 661c 2dbe 6c57 92bd
00000140: 50af e6bc 5e7e f7bd 2167 ba3d e34d 853c
00000150: 9021 013d ecab cfbd 1a2f 87bd b7bc a9bd
00000160: 8842 133d 4b67 e5ba 5bd5 63bc 1cc0 563d
00000170: a187 1ebe e02a 75bd 3ecd a6bd f6b6 313e
00000180: 78d2 953c 819f 72bd 0850 a43d 1746 73bd
00000190: eb06 f1bd 19e6 78bd 4815 8bbd 36a1 b33d
000001a0: 28e4 45be 2607 2dbe 3ce6 f5bd 4a1a 843d
000001b0: 7733 8ebe 2418 563d f20d b53c 7086 82bd
000001c0: 7533 fcbd f127 333d a1ad 023e c351 93bd
000001d0: adc6 a13d f997 7f3c a847 95bd 9186 1e3d
000001e0: 1c01 6cbd d294 80bd b1f5 80bd c42f b33d
000001f0: 5c28 77bd e647 9c3d afb5 e6bc 8111 d63d
00000200: fc45 56bd 206a 843d c919 73bd 2dc5 a4bd
00000210: c603 7b3d ca20 dd3c 18d8 49be 6554 2e3d
00000220: d846 6ebd be35 7bbd 256d 813d 7e90 ffbc
00000230: e859 15be 067b 733c 7cd0 e5bd 74d0 cd3b
00000240: eb41 a33c 801c 2ebd 0a22 cf3d 31e7 e0bc
00000250: dfe3 0bbe 2ef5 6cbd 81d0 c43d 027c 3fbc
00000260: 4f81 373c cd3b 83bd 87c7 7ebd 2678 0c3e
00000270: 93df 533d a64f 0c3e 24fc 373d e28f 64bd
00000280: 9157 89bd 65bc 593d 859f 59bd 1ff1 33be
00000290: 0e5e bbbc 33ad 483d 6503 51bd 82d7 dabd
000002a0: 8a7f 8a3d ba45 c0bc 7301 993d b39c 4d3d
000002b0: c120 7abd abd0 b4bd 59e8 5b3d e310 c0bd
000002c0: 2fb0 113d 145f ee3c deaa 863d da90 6abd
000002d0: aa55 1a3c b127 383d cae5 b43d e9eb 703d
000002e0: 4e86 87bd e9fe 463d 3d80 b9bc 8d6c 59bc
000002f0: 58ae 8cbd 38ef 7fbd cdab 68bd cd12 77bd
00000300: 6202 cc3c bbe6 72bd 05d6 25be dfe2 82bd
00000310: 30a6 d9bd a3cb eb3c 7a8e ca3d 935d b43d
00000320: 2140 163b bd96 b63d 0926 8abd efc6 073d
00000330: ed80 82bd 9174 983c 52ce b8bd d725 82bd
00000340: 0f0f 9d3c 39bb 99bc a04e 87bd f321 a33c
00000350: e088 b3bc 2cee 6dbd 6aa4 b63d fe9f 8c3d
00000360: 0fb7 7ebd 19a7 97bd f460 e6bd 00d5 26bd
00000370: b121 f5bc 3f71 81bd 25d8 593d 9b10 72bd
00000380: 15ed 953d 4d2e 6abd 1dff 7fbd 6c77 183d
00000390: c190 61bd 2221 043c 5feb 2b3d 46a6 85bd
000003a0: 3d14 7dbd 8afc 1abe d551 413d eb65 193d
000003b0: b6ce 72bd 3255 5abe 2df7 1e3d 06b7 85bd
000003c0: 859e 823c f934 283d 55ea 67bd 015d b33d
000003d0: a768 86bd b2ae dd3c e088 58bb af1e 143d
000003e0: 9014 5f3d 2e79 81bd 7d9d e2bd 4cf9 f63c
000003f0: 3d84 ca3c 695f 4e3d e021 f03b 0708 90bd
0.007228224 0.063372046 -0.06033974 0.11016675 -0.058887318 -0.063950375 -0.119166516 0.04008178
0.110138446 0.002929071 -0.020814119 -0.060728714 -0.21200798 0.045271255 0.05483797 0.045085225
0.069172636 -0.052321035 0.01015244 -0.025008652 -0.065431975 0.029625952 -0.060799472 -0.07368491
-0.079342656 -0.06654981 0.055659235 0.06116221 -0.042510197 0.044799116 -0.051172413 0.032124028
-0.049963314 -0.1681713 0.029524457 -0.061478443 -0.061481304 -0.15430668 -0.046142045 -0.06527552
-0.060973812 -0.05121492 0.0447483 -0.05982177 -0.09464199 -0.11084278 0.047878362 0.06457679
0.04770128 -0.059008308 -0.0520559 0.029852716 0.046933327 -0.059950747 -0.04229647 0.022843396
0.029824631 0.032839425 -0.016657462 -0.06594351 -0.014122247 0.053408578 -0.02582303 0.06631826
0.017212814 -0.028569832 0.0743692 0.022915548 -0.06752197 0.03238224 0.0469959 -0.08296692
-0.053052142 -0.027539952 -0.06132397 0.03966816 -0.019432351 0.041275173 -0.16905364 -0.07145581
-0.028159767 -0.120846495 0.091017015 0.01627249 0.03152615 -0.10140213 -0.06600781 -0.082879476
0.03595212 -0.0017502097 -0.013905848 0.052429304 -0.15481426 -0.059855342 -0.081446156 0.1735495
0.018288836 -0.059234146 0.08023077 -0.059393015 -0.117688976 -0.060766313 -0.067911685 0.08770983
-0.19325316 -0.16897258 -0.12006804 0.06450327 -0.2777364 0.052269116 0.022101376 -0.06373298
-0.12314502 0.043739263 0.12761547 -0.07193329 0.078992225 0.015600198 -0.07289058 0.03870255
-0.057618245 -0.06278385 -0.06296862 0.08749345 -0.060341224 0.07630901 -0.028162805 0.10452557
-0.052312836 0.06465554 -0.059350763 -0.08045421 0.061282896 0.026993174 -0.1971134 0.042560954
-0.05817303 -0.06133055 0.06319646 -0.031196829 -0.14585078 0.014860874 -0.11221406 0.006280953
0.019928893 -0.04250765 0.10113914 -0.02745399 -0.13661145 -0.05785101 0.096100815 -0.011687281
0.011200263 -0.064078905 -0.062202003 0.13717708 0.05172689 0.13702258 0.044918194 -0.05580128
-0.06706155 0.053158183 -0.053130645 -0.17572449 -0.022871997 0.0489933 -0.051028628 -0.10685636
0.067626074 -0.023470748 0.074709795 0.05019827 -0.061066393 -0.08828863 0.05368838 -0.09378221
0.035568412 0.029098071 0.06575559 -0.057267047 0.009419838 0.044959728 0.08832891 0.05881873
-0.066174135 0.048582945 -0.022644157 -0.013270509 -0.06869191 -0.062483996 -0.056804467 -0.060320664
0.02490348 -0.059302073 -0.16194923 -0.063909285 -0.10627401 0.028783625 0.098904565 0.0880691
0.0022926407 0.0891547 -0.06745536 0.033148702 -0.06372247 0.01861027 -0.090237275 -0.063548736
0.01917222 -0.018766033 -0.066067934 0.01991365 -0.021915853 -0.058088467 0.08918078 0.068664536
-0.062186297 -0.07404918 -0.11248961 -0.040730476 -0.029923292 -0.06320428 0.053184647 -0.059097867
0.073206104 -0.057173062 -0.062499154 0.037223265 -0.05506969 0.00806454 0.041972514 -0.06525855
-0.06178688 -0.15135399 0.04719718 0.037450712 -0.059279166 -0.21321562 0.038809944 -0.065290496
0.015944729 0.041066144 -0.05661996 0.087579735 -0.065629296 0.02706084 -0.0033040568 0.036162075
0.05446297 -0.06321941 -0.11065195 0.03014817 0.02472126 0.05038396 0.007328257 -0.07032781

4.weight f4 [101, 256]
00000000: 2f2c 11bd a1e7 b1be 898b 1f3d cd71 94be
00000010: 8414 8bbe 9394 283d 3d59 f53a 29d0 6ebe
00000020: bf7f 0c3d 52de 70be fb7c c9bd ab4a 9a3d
00000030: a341 27bb 31e5 2dbe 81cc 1abe 3fc2 20be
00000040: 437c 70be 033f 943d 3bc3 7ebe 59a4 9dbf
00000050: e2ff 033e eb53 1abe 34d9 60bc b5ee 7e3c
00000060: bc5e 293e 5525 27bd 360e 89be 204a 87be
00000070: 5c63 f1bd 9b4b bcbd dbf9 f8bd 985b 77bd
00000080: b51b 08be 04c7 87bd 0ad2 8c3e cda3 e7bc
00000090: 71f1 4bbe c551 ebbc eb89 2fbe fd85 dcbc
000000a0: b6c8 f7bc 4e67 5ebe f213 3fbe 2b5e 15bd
000000b0: 861f 1dbe 17ba 24bf af20 9bbe 9594 87be
000000c0: 3689 70be 3256 253d f0d8 723d 9375 3abe
000000d0: b900 85be a122 133d d003 bcbe b762 9cbd
000000e0: b18f e8bd 0412 ddbd 145b 31bd 6bfa 86bd
000000f0: 3c83 29be df17 3abe d2dc 053e 2698 19be
00000100: 3af7 33be f922 3d3c 964d 21be 0abc a3be
00000110: 10cf 1ebd c75e acbd b6bb 75be 7d0b 2bbe
00000120: bc7d a3bd 8690 80bd 4b0c 98bd 18fb a2bd
00000130: da10 9dbe 2cbe e2bd 4b0f 213b 6e49 35bd
00000140: a27e 83bd 9593 3f3e c540 cebe b712 29be
00000150: e0e9 4ebe 152a 2fbd e0a7 07be dcc3 8cbe
00000160: 0353 5cbd a398 44be 7e2b 95bd b761 7dbe
00000170: df92 993d a237 63bc f255 cabb dd45 04be
00000180: f161 39be fea0 4abd 633f 7fbe cb29 6a3c
00000190: 79dd 26be fd09 d3bd 6a86 fdbd 835a 30be
000001a0: a343 0fbd 5951 983c c71d 12bd e8af 5abe
000001b0: 5767 2c3e 4f2c afbd 8449 a1bd dcae d13c
000001c0: 06f4 80bd 5403 11be 9d8f 5ebe 85b2 2b3e
000001d0: 72fe 88be 6fa6 04be 1cc9 b33b 21bb b3be
000001e0: 8900 373d 5369 38be 2c06 b0bd a6fa 43be
000001f0: 7bf6 41bd c04b 15be 370c 86bd 9461 92bd
00000200: 0082 c6bd 1f43 0fbe cc8e 2bbe 74e7 3c3b
00000210: b736 48be 7f2c 41be bd02 0f3e 658a 76be
00000220: 6441 083c b05f 05bd a9bc 59be 39d4 8bbd
00000230: af2d 50bd 6c22 f3bd 037c 40be b17b e5bd
00000240: 08bc b9be a724 96bd 8a35 67be 4963 0ebc
00000250: 9a65 aebd c71a 49be 1f18 66be 271b 08bd
00000260: 09e8 ddbd 6631 433d 02cd c8bd 9292 94be
00000270: 1ff5 4fbe 742c e03c a0d6 f4bd fa48 8bbd
00000280: 09f6 84bd 0e79 7dbe f038 9b3d e4cb 5abd
00000290: f3fe 08be 0c84 92be 8280 a03c 3405 af3d
000002a0: d369 63be fa1e 00be 1b3e e7bd 8761 85be
000002b0: 4725 54be 0cdd 2bbd 32bb 91be e6e0 f9bd
000002c0: 607f e9bd 6593 7dbe c078 88be 149b 3e3e
000002d0: 567f 09be c02d 70be d87f 64be f86e 81be
000002e0: 523f 84bc 807e 9fbe ba7c 82bd 93c0 54bd
000002f0: d1c8 22bd 75f5 30bd ae8a 723d f03e 98bd
00000300: ded8 44be 1774 abbc fb76 96bd b1b6 34be
00000310: e67d bdbd b153 cbbe a961 54be 710c 82bd
00000320: 5012 69be a05c 31be cbda 373a 0727 e0bc
00000330: 2772 69bd eda1 bfbe a776 b2bd 6402 bbbd
00000340: 4592 b3be 1f4c bebd d520 f2bd 2a40 be3a
00000350: bff3 44bd e6a6 bbbd 7cda 5ebe b251 f43c
00000360: edb6 af3c acdf 8d3e b0df ac3e 7cbe 96be
00000370: 05d9 04bd 9f9b 56bc 0cd3 42be 2831 8c3c
00000380: 1fdb 02be efc8 0cbe 20bf cb3d dbc1 9dbe
00000390: 4fcb a23d 0aba b0be e1c0 2a3c 778c b2bd
000003a0: 716c 33be 3d7f b2bd 80f4 d6bd 8fbf 1cbe
000003b0: 4376 a0bd 75a4 bb3d 37c2 b4be 1347 aebd
000003c0: 2d98 6fbe ce93 65be c5ad 97bd d741 29be
000003d0: fc22 44bc 8b6d 1bbe e52b 28be f4f7 2ebe
000003e0: b1e9 4dbe 72c8 903d 4eb4 3bbe 2d2b 44be
000003f0: e076 4abe 5d71 bcbd 2af7 4f3e 0f2f e2bd
-0.035442527 -0.3474703 0.03895143 -0.28993073 -0.2716409 0.041157316 0.0018718612 -0.23321594
0.034301516 -0.23522308 -0.09838291 0.07533773 -0.00255213 -0.16981961 -0.15117075 -0.15699099
-0.23484902 0.07238581 -0.24879162 -1.231578 0.1289058 -0.15071075 -0.01372366 0.015559842
0.16540045 -0.040807087 -0.26768655 -0.2642374 -0.117865294 -0.09194108 -0.12157031 -0.060390085
-0.1329182 -0.06629756 0.27503997 -0.028276348 -0.19916321 -0.028725514 -0.17142455 -0.02691936
-0.030247074 -0.21719095 -0.18659952 -0.03646676 -0.15344056 -0.6434645 -0.30298373 -0.26480547
-0.23489842 0.040365405 0.05928892 -0.18208914 -0.25977114 0.035921697 -0.3672166 -0.07636016
-0.11355532 -0.10794452 -0.04329975 -0.06590732 -0.16553968 -0.18173169 0.13072518 -0.14999446
-0.17574778 0.011543983 -0.15752253 -0.319794 -0.03877169 -0.08416515 -0.23997387 -0.16703601
-0.07982966 -0.06277566 -0.0742422 -0.079580486 -0.3067692 -0.11071429 0.0024575766 -0.04425948
-0.06420638 0.18708642 -0.4028379 -0.16511045 -0.20206404 -0.042764742 -0.13247633 -0.2749318
-0.053790104 -0.19198851 -0.07283686 -0.24744307 0.074987166 -0.013868244 -0.0061747963 -0.12917276
-0.18103768 -0.04946994 -0.24926524 0.014292191 -0.16295423 -0.103046395 -0.12379153 -0.17222027
-0.034976613 0.018593477 -0.03567293 -0.21356165 0.16836296 -0.08553373 -0.0787535 0.025596075
-0.06296544 -0.14161426 -0.21734472 0.16767319 -0.26756626 -0.12954114 0.0054866206 -0.35103706
0.044678245 -0.18008928 -0.08594927 -0.19138584 -0.047354203 -0.14579678 -0.065452985 -0.07147518
-0.09692764 -0.13990448 -0.16753691 0.002882448 -0.19552122 -0.1886463 0.13965888 -0.24076231
0.008316372 -0.032561958 -0.21263374 -0.06827588 -0.050824817 -0.118718 -0.18797307 -0.11205233
-0.3627627 -0.0733121 -0.22579017 -0.008690664 -0.08515473 -0.19639121 -0.22470139 -0.03322902
-0.10835273 0.047654532 -0.09804727 -0.29018074 -0.2030835 0.027364947 -0.11954999 -0.068010285
-0.0649224 -0.2475321 0.07579219 -0.0534171 -0.13378505 -0.2861637 0.019592527 0.08545914
-0.22208337 -0.12511817 -0.112911426 -0.2605097 -0.20717345 -0.041958854 -0.2846313 -0.12201099
-0.11401248 -0.24763258 -0.26654625 0.18613845 -0.13427481 -0.23454952 -0.22314394 -0.25279975
-0.016143475 -0.311512 -0.06371446 -0.051941466 -0.039742295 -0.043202836 0.059214287 -0.074338794
-0.19223353 -0.02092938 -0.073469125 -0.17647816 -0.09252529 -0.3971229 -0.2074038 -0.06350029
-0.22760892 -0.1732049 0.00070134987 -0.02736236 -0.05699363 -0.37428227 -0.087140374 -0.09131315
-0.35072532 -0.09291863 -0.118226685 0.0014514972 -0.048084017 -0.09162693 -0.21763033 0.029824112
0.02144953 0.2770971 0.3376441 -0.29442203 -0.03243353 -0.013098626 -0.1902582 0.017113283
-0.127789 -0.13748525 0.099485636 -0.30811962 0.07948934 -0.34516937 0.0104219625 -0.08718198
-0.17521836 -0.08715675 -0.104958534 -0.15307449 -0.07835057 0.09162227 -0.35304424 -0.0850965
-0.23397894 -0.22419664 -0.07406191 -0.16529022 -0.011971232 -0.15178506 -0.16422994 -0.17086774
-0.20108677 0.07069482 -0.183305 -0.19157095 -0.1977191 -0.0920131 0.2030913 -0.11044132

4.bias f4 [101]
00000000: 5486 18be 6ebc a03d c543 903d 689c a43d
00000010: 440e 803d f714 543d 61c9 4f3d 7e3b 583d
00000020: f48c 9a3d 00d2 c53c 8c5b 8d3d ea87 743b
00000030: cc82 313d f9b4 c03d dcbe a73d c661 b1bc
00000040: 6e8f 9b3d dd35 b83d 79b2 973c 59ec e93d
00000050: 3441 2e3c ec8b 05bc 87a6 19bd e4e4 c13c
00000060: 12bf 06bb 784c 36be f77a 163c 29f8 60bd
00000070: 9985 9ebd fc8d 17be 186f 3ebd c3af dd3d
00000080: 2827 24bd ecec b6bd c0df 9b3c 13f3 e2bd
00000090: 7908 2c3b 6938 563c 73d6 93bd 65dc 0cbe
000000a0: 0fb4 58bd 0ad3 b1bd 9d40 423c cb04 143c
000000b0: c40b 313c 310b f1bd 7b62 23bd e631 cabb
000000c0: 9df9 363c 5596 97bd 51bb 88bd 5596 4dbd
000000d0: f66b d8bc 9f91 b4bd 6201 4fbc 8351 a1bd
000000e0: c76e 05bd 7fe3 e3bd 0f7b 82bd 07d4 6fbd
000000f0: c99a e5bd c502 7abd b405 98bd 438e 06be
00000100: b5f5 6cbd 0287 9bbd cdf5 a2bd 3f66 dbbd
00000110: 5a75 cbbc 2872 95bd f17c cebd b866 bfbd
00000120: 0fa0 91bd fa0b c5bd ade3 eabd 0716 90bd
00000130: 3018 aabd f492 a3bd d9e3 b0bd af19 acbd
00000140: cdad ddbd 76c9 b6bd 37db cabd 3df1 a3bd
00000150: 96ac aebd 811c d3bd 0408 aebd a55d d2bd
00000160: 7f7c c4bd 436b fabd cf22 c6bd 7ad1 fdbd
00000170: 059f c3bd d300 c0bd 138f edbd b0ae d0bd
00000180: 86c8 adbd a64d d9bd a983 d6bd 90fc b8bd
00000190: d749 b8bc
-0.14894992 0.0784844 0.07044176 0.080376446 0.06252721 0.051777806 0.05072916 0.05279111
0.07546416 0.024147987 0.06902227 0.0037312456 0.04333763 0.09409518 0.081907004 -0.021653067
0.075957164 0.089946486 0.01851772 0.11422033 0.010635663 -0.008151036 -0.03751233 0.023668714
-0.0020560664 -0.17802608 0.009184591 -0.054924164 -0.077403255 -0.14800256 -0.046492666 0.108245395
-0.040076405 -0.08931908 0.01902759 -0.11081519 0.0026250167 0.013074973 -0.07218637 -0.13755949
-0.052906092 -0.08682831 0.011856225 0.009034346 0.010806028 -0.11769713 -0.03988884 -0.006170499
0.011167911 -0.074017204 -0.06676353 -0.050192196 -0.026418667 -0.088168375 -0.012634607 -0.07876875
-0.03257635 -0.11127376 -0.06371128 -0.058551814 -0.112111636 -0.061037797 -0.07422963 -0.13140206
-0.057851512 -0.0759411 -0.07957039 -0.10712861 -0.024836231 -0.07297164 -0.100824244 -0.09345764
-0.07110607 -0.09621425 -0.11469207 -0.070354514 -0.08305395 -0.079870135 -0.086372085 -0.08403336
-0.108241655 -0.089251444 -0.09905093 -0.08004997 -0.08529012 -0.10308171 -0.084976226 -0.102717675
-0.09594058 -0.1222749 -0.09674608 -0.1239347 -0.09551815 -0.09375157 -0.11599555 -0.10189569
-0.084855124 -0.106105134 -0.10474331 -0.090325475 -0.022496147
